<?xml version="1.0" ?>
<net batch="1" name="model-out" version="3">
	<layers>
		<layer id="0" name="img_placeholder" precision="FP32" type="Input">
			<output>
				<port id="0">
					<dim>1</dim>
					<dim>3</dim>
					<dim>199</dim>
					<dim>253</dim>
				</port>
			</output>
		</layer>
		<layer id="1" name="Conv2D" precision="FP32" type="Convolution">
			<data auto_pad="same_upper" dilations="1,1" group="1" kernel="9,9" output="32" pads_begin="4,4" pads_end="4,4" strides="1,1"/>
			<input>
				<port id="0">
					<dim>1</dim>
					<dim>3</dim>
					<dim>199</dim>
					<dim>253</dim>
				</port>
			</input>
			<output>
				<port id="2">
					<dim>1</dim>
					<dim>32</dim>
					<dim>199</dim>
					<dim>253</dim>
				</port>
			</output>
			<blobs>
				<weights offset="0" size="31104"/>
			</blobs>
		</layer>
		<layer id="2" name="moments/mean" precision="FP32" type="Pooling">
			<data exclude-pad="true" kernel="199,253" pads_begin="0,0" pads_end="0,0" pool-method="avg" rounding-type="ceil" strides="1,1"/>
			<input>
				<port id="0">
					<dim>1</dim>
					<dim>32</dim>
					<dim>199</dim>
					<dim>253</dim>
				</port>
			</input>
			<output>
				<port id="1">
					<dim>1</dim>
					<dim>32</dim>
					<dim>1</dim>
					<dim>1</dim>
				</port>
			</output>
		</layer>
		<layer id="3" name="sub/negate_" precision="FP32" type="Power">
			<data power="1" scale="-1" shift="0"/>
			<input>
				<port id="0">
					<dim>1</dim>
					<dim>32</dim>
					<dim>1</dim>
					<dim>1</dim>
				</port>
			</input>
			<output>
				<port id="1">
					<dim>1</dim>
					<dim>32</dim>
					<dim>1</dim>
					<dim>1</dim>
				</port>
			</output>
		</layer>
		<layer id="4" name="sub/add_/Broadcast/" precision="FP32" type="Tile">
			<data axis="2" tiles="199"/>
			<input>
				<port id="0">
					<dim>1</dim>
					<dim>32</dim>
					<dim>1</dim>
					<dim>1</dim>
				</port>
			</input>
			<output>
				<port id="1">
					<dim>1</dim>
					<dim>32</dim>
					<dim>199</dim>
					<dim>1</dim>
				</port>
			</output>
		</layer>
		<layer id="5" name="sub/add_/Broadcast/1124" precision="FP32" type="Tile">
			<data axis="3" tiles="253"/>
			<input>
				<port id="0">
					<dim>1</dim>
					<dim>32</dim>
					<dim>199</dim>
					<dim>1</dim>
				</port>
			</input>
			<output>
				<port id="1">
					<dim>1</dim>
					<dim>32</dim>
					<dim>199</dim>
					<dim>253</dim>
				</port>
			</output>
		</layer>
		<layer id="6" name="sub/add_" precision="FP32" type="Eltwise">
			<data operation="sum"/>
			<input>
				<port id="0">
					<dim>1</dim>
					<dim>32</dim>
					<dim>199</dim>
					<dim>253</dim>
				</port>
				<port id="1">
					<dim>1</dim>
					<dim>32</dim>
					<dim>199</dim>
					<dim>253</dim>
				</port>
			</input>
			<output>
				<port id="2">
					<dim>1</dim>
					<dim>32</dim>
					<dim>199</dim>
					<dim>253</dim>
				</port>
			</output>
		</layer>
		<layer id="7" name="moments/SquaredDifference/negate_" precision="FP32" type="Power">
			<data power="1" scale="-1" shift="0"/>
			<input>
				<port id="0">
					<dim>1</dim>
					<dim>32</dim>
					<dim>1</dim>
					<dim>1</dim>
				</port>
			</input>
			<output>
				<port id="1">
					<dim>1</dim>
					<dim>32</dim>
					<dim>1</dim>
					<dim>1</dim>
				</port>
			</output>
		</layer>
		<layer id="8" name="moments/SquaredDifference/add_/Broadcast/" precision="FP32" type="Tile">
			<data axis="2" tiles="199"/>
			<input>
				<port id="0">
					<dim>1</dim>
					<dim>32</dim>
					<dim>1</dim>
					<dim>1</dim>
				</port>
			</input>
			<output>
				<port id="1">
					<dim>1</dim>
					<dim>32</dim>
					<dim>199</dim>
					<dim>1</dim>
				</port>
			</output>
		</layer>
		<layer id="9" name="moments/SquaredDifference/add_/Broadcast/1116" precision="FP32" type="Tile">
			<data axis="3" tiles="253"/>
			<input>
				<port id="0">
					<dim>1</dim>
					<dim>32</dim>
					<dim>199</dim>
					<dim>1</dim>
				</port>
			</input>
			<output>
				<port id="1">
					<dim>1</dim>
					<dim>32</dim>
					<dim>199</dim>
					<dim>253</dim>
				</port>
			</output>
		</layer>
		<layer id="10" name="moments/SquaredDifference/add_" precision="FP32" type="Eltwise">
			<data operation="sum"/>
			<input>
				<port id="0">
					<dim>1</dim>
					<dim>32</dim>
					<dim>199</dim>
					<dim>253</dim>
				</port>
				<port id="1">
					<dim>1</dim>
					<dim>32</dim>
					<dim>199</dim>
					<dim>253</dim>
				</port>
			</input>
			<output>
				<port id="2">
					<dim>1</dim>
					<dim>32</dim>
					<dim>199</dim>
					<dim>253</dim>
				</port>
			</output>
		</layer>
		<layer id="11" name="moments/SquaredDifference/squared_" precision="FP32" type="Power">
			<data power="2" scale="1" shift="0"/>
			<input>
				<port id="0">
					<dim>1</dim>
					<dim>32</dim>
					<dim>199</dim>
					<dim>253</dim>
				</port>
			</input>
			<output>
				<port id="1">
					<dim>1</dim>
					<dim>32</dim>
					<dim>199</dim>
					<dim>253</dim>
				</port>
			</output>
		</layer>
		<layer id="12" name="moments/variance" precision="FP32" type="Pooling">
			<data exclude-pad="true" kernel="199,253" pads_begin="0,0" pads_end="0,0" pool-method="avg" rounding-type="ceil" strides="1,1"/>
			<input>
				<port id="0">
					<dim>1</dim>
					<dim>32</dim>
					<dim>199</dim>
					<dim>253</dim>
				</port>
			</input>
			<output>
				<port id="1">
					<dim>1</dim>
					<dim>32</dim>
					<dim>1</dim>
					<dim>1</dim>
				</port>
			</output>
		</layer>
		<layer id="13" name="add" precision="FP32" type="Power">
			<data power="1" scale="1" shift="0.0010000000474974513"/>
			<input>
				<port id="0">
					<dim>1</dim>
					<dim>32</dim>
					<dim>1</dim>
					<dim>1</dim>
				</port>
			</input>
			<output>
				<port id="1">
					<dim>1</dim>
					<dim>32</dim>
					<dim>1</dim>
					<dim>1</dim>
				</port>
			</output>
		</layer>
		<layer id="14" name="Rsqrt" precision="FP32" type="Power">
			<data power="-0.5" scale="1" shift="0"/>
			<input>
				<port id="0">
					<dim>1</dim>
					<dim>32</dim>
					<dim>1</dim>
					<dim>1</dim>
				</port>
			</input>
			<output>
				<port id="1">
					<dim>1</dim>
					<dim>32</dim>
					<dim>1</dim>
					<dim>1</dim>
				</port>
			</output>
		</layer>
		<layer id="15" name="mul/Broadcast/" precision="FP32" type="Tile">
			<data axis="2" tiles="199"/>
			<input>
				<port id="0">
					<dim>1</dim>
					<dim>32</dim>
					<dim>1</dim>
					<dim>1</dim>
				</port>
			</input>
			<output>
				<port id="1">
					<dim>1</dim>
					<dim>32</dim>
					<dim>199</dim>
					<dim>1</dim>
				</port>
			</output>
		</layer>
		<layer id="16" name="mul/Broadcast/1248" precision="FP32" type="Tile">
			<data axis="3" tiles="253"/>
			<input>
				<port id="0">
					<dim>1</dim>
					<dim>32</dim>
					<dim>199</dim>
					<dim>1</dim>
				</port>
			</input>
			<output>
				<port id="1">
					<dim>1</dim>
					<dim>32</dim>
					<dim>199</dim>
					<dim>253</dim>
				</port>
			</output>
		</layer>
		<layer id="17" name="mul" precision="FP32" type="Eltwise">
			<data operation="mul"/>
			<input>
				<port id="0">
					<dim>1</dim>
					<dim>32</dim>
					<dim>199</dim>
					<dim>253</dim>
				</port>
				<port id="1">
					<dim>1</dim>
					<dim>32</dim>
					<dim>199</dim>
					<dim>253</dim>
				</port>
			</input>
			<output>
				<port id="2">
					<dim>1</dim>
					<dim>32</dim>
					<dim>199</dim>
					<dim>253</dim>
				</port>
			</output>
		</layer>
		<layer id="18" name="mul_1/FusedScaleShift_" precision="FP32" type="ScaleShift">
			<input>
				<port id="0">
					<dim>1</dim>
					<dim>32</dim>
					<dim>199</dim>
					<dim>253</dim>
				</port>
			</input>
			<output>
				<port id="3">
					<dim>1</dim>
					<dim>32</dim>
					<dim>199</dim>
					<dim>253</dim>
				</port>
			</output>
			<blobs>
				<weights offset="31104" size="128"/>
				<biases offset="31232" size="128"/>
			</blobs>
		</layer>
		<layer id="19" name="Relu" precision="FP32" type="ReLU">
			<input>
				<port id="0">
					<dim>1</dim>
					<dim>32</dim>
					<dim>199</dim>
					<dim>253</dim>
				</port>
			</input>
			<output>
				<port id="1">
					<dim>1</dim>
					<dim>32</dim>
					<dim>199</dim>
					<dim>253</dim>
				</port>
			</output>
		</layer>
		<layer id="20" name="Conv2D_1" precision="FP32" type="Convolution">
			<data auto_pad="same_upper" dilations="1,1" group="1" kernel="3,3" output="64" pads_begin="1,1" pads_end="1,1" strides="2,2"/>
			<input>
				<port id="0">
					<dim>1</dim>
					<dim>32</dim>
					<dim>199</dim>
					<dim>253</dim>
				</port>
			</input>
			<output>
				<port id="2">
					<dim>1</dim>
					<dim>64</dim>
					<dim>100</dim>
					<dim>127</dim>
				</port>
			</output>
			<blobs>
				<weights offset="31360" size="73728"/>
			</blobs>
		</layer>
		<layer id="21" name="moments_1/mean" precision="FP32" type="Pooling">
			<data exclude-pad="true" kernel="100,127" pads_begin="0,0" pads_end="0,0" pool-method="avg" rounding-type="ceil" strides="1,1"/>
			<input>
				<port id="0">
					<dim>1</dim>
					<dim>64</dim>
					<dim>100</dim>
					<dim>127</dim>
				</port>
			</input>
			<output>
				<port id="1">
					<dim>1</dim>
					<dim>64</dim>
					<dim>1</dim>
					<dim>1</dim>
				</port>
			</output>
		</layer>
		<layer id="22" name="sub_1/negate_" precision="FP32" type="Power">
			<data power="1" scale="-1" shift="0"/>
			<input>
				<port id="0">
					<dim>1</dim>
					<dim>64</dim>
					<dim>1</dim>
					<dim>1</dim>
				</port>
			</input>
			<output>
				<port id="1">
					<dim>1</dim>
					<dim>64</dim>
					<dim>1</dim>
					<dim>1</dim>
				</port>
			</output>
		</layer>
		<layer id="23" name="sub_1/add_/Broadcast/" precision="FP32" type="Tile">
			<data axis="2" tiles="100"/>
			<input>
				<port id="0">
					<dim>1</dim>
					<dim>64</dim>
					<dim>1</dim>
					<dim>1</dim>
				</port>
			</input>
			<output>
				<port id="1">
					<dim>1</dim>
					<dim>64</dim>
					<dim>100</dim>
					<dim>1</dim>
				</port>
			</output>
		</layer>
		<layer id="24" name="sub_1/add_/Broadcast/1236" precision="FP32" type="Tile">
			<data axis="3" tiles="127"/>
			<input>
				<port id="0">
					<dim>1</dim>
					<dim>64</dim>
					<dim>100</dim>
					<dim>1</dim>
				</port>
			</input>
			<output>
				<port id="1">
					<dim>1</dim>
					<dim>64</dim>
					<dim>100</dim>
					<dim>127</dim>
				</port>
			</output>
		</layer>
		<layer id="25" name="sub_1/add_" precision="FP32" type="Eltwise">
			<data operation="sum"/>
			<input>
				<port id="0">
					<dim>1</dim>
					<dim>64</dim>
					<dim>100</dim>
					<dim>127</dim>
				</port>
				<port id="1">
					<dim>1</dim>
					<dim>64</dim>
					<dim>100</dim>
					<dim>127</dim>
				</port>
			</input>
			<output>
				<port id="2">
					<dim>1</dim>
					<dim>64</dim>
					<dim>100</dim>
					<dim>127</dim>
				</port>
			</output>
		</layer>
		<layer id="26" name="moments_1/SquaredDifference/negate_" precision="FP32" type="Power">
			<data power="1" scale="-1" shift="0"/>
			<input>
				<port id="0">
					<dim>1</dim>
					<dim>64</dim>
					<dim>1</dim>
					<dim>1</dim>
				</port>
			</input>
			<output>
				<port id="1">
					<dim>1</dim>
					<dim>64</dim>
					<dim>1</dim>
					<dim>1</dim>
				</port>
			</output>
		</layer>
		<layer id="27" name="moments_1/SquaredDifference/add_/Broadcast/" precision="FP32" type="Tile">
			<data axis="2" tiles="100"/>
			<input>
				<port id="0">
					<dim>1</dim>
					<dim>64</dim>
					<dim>1</dim>
					<dim>1</dim>
				</port>
			</input>
			<output>
				<port id="1">
					<dim>1</dim>
					<dim>64</dim>
					<dim>100</dim>
					<dim>1</dim>
				</port>
			</output>
		</layer>
		<layer id="28" name="moments_1/SquaredDifference/add_/Broadcast/1076" precision="FP32" type="Tile">
			<data axis="3" tiles="127"/>
			<input>
				<port id="0">
					<dim>1</dim>
					<dim>64</dim>
					<dim>100</dim>
					<dim>1</dim>
				</port>
			</input>
			<output>
				<port id="1">
					<dim>1</dim>
					<dim>64</dim>
					<dim>100</dim>
					<dim>127</dim>
				</port>
			</output>
		</layer>
		<layer id="29" name="moments_1/SquaredDifference/add_" precision="FP32" type="Eltwise">
			<data operation="sum"/>
			<input>
				<port id="0">
					<dim>1</dim>
					<dim>64</dim>
					<dim>100</dim>
					<dim>127</dim>
				</port>
				<port id="1">
					<dim>1</dim>
					<dim>64</dim>
					<dim>100</dim>
					<dim>127</dim>
				</port>
			</input>
			<output>
				<port id="2">
					<dim>1</dim>
					<dim>64</dim>
					<dim>100</dim>
					<dim>127</dim>
				</port>
			</output>
		</layer>
		<layer id="30" name="moments_1/SquaredDifference/squared_" precision="FP32" type="Power">
			<data power="2" scale="1" shift="0"/>
			<input>
				<port id="0">
					<dim>1</dim>
					<dim>64</dim>
					<dim>100</dim>
					<dim>127</dim>
				</port>
			</input>
			<output>
				<port id="1">
					<dim>1</dim>
					<dim>64</dim>
					<dim>100</dim>
					<dim>127</dim>
				</port>
			</output>
		</layer>
		<layer id="31" name="moments_1/variance" precision="FP32" type="Pooling">
			<data exclude-pad="true" kernel="100,127" pads_begin="0,0" pads_end="0,0" pool-method="avg" rounding-type="ceil" strides="1,1"/>
			<input>
				<port id="0">
					<dim>1</dim>
					<dim>64</dim>
					<dim>100</dim>
					<dim>127</dim>
				</port>
			</input>
			<output>
				<port id="1">
					<dim>1</dim>
					<dim>64</dim>
					<dim>1</dim>
					<dim>1</dim>
				</port>
			</output>
		</layer>
		<layer id="32" name="add_2" precision="FP32" type="Power">
			<data power="1" scale="1" shift="0.0010000000474974513"/>
			<input>
				<port id="0">
					<dim>1</dim>
					<dim>64</dim>
					<dim>1</dim>
					<dim>1</dim>
				</port>
			</input>
			<output>
				<port id="1">
					<dim>1</dim>
					<dim>64</dim>
					<dim>1</dim>
					<dim>1</dim>
				</port>
			</output>
		</layer>
		<layer id="33" name="Rsqrt_1" precision="FP32" type="Power">
			<data power="-0.5" scale="1" shift="0"/>
			<input>
				<port id="0">
					<dim>1</dim>
					<dim>64</dim>
					<dim>1</dim>
					<dim>1</dim>
				</port>
			</input>
			<output>
				<port id="1">
					<dim>1</dim>
					<dim>64</dim>
					<dim>1</dim>
					<dim>1</dim>
				</port>
			</output>
		</layer>
		<layer id="34" name="mul_2/Broadcast/" precision="FP32" type="Tile">
			<data axis="2" tiles="100"/>
			<input>
				<port id="0">
					<dim>1</dim>
					<dim>64</dim>
					<dim>1</dim>
					<dim>1</dim>
				</port>
			</input>
			<output>
				<port id="1">
					<dim>1</dim>
					<dim>64</dim>
					<dim>100</dim>
					<dim>1</dim>
				</port>
			</output>
		</layer>
		<layer id="35" name="mul_2/Broadcast/1216" precision="FP32" type="Tile">
			<data axis="3" tiles="127"/>
			<input>
				<port id="0">
					<dim>1</dim>
					<dim>64</dim>
					<dim>100</dim>
					<dim>1</dim>
				</port>
			</input>
			<output>
				<port id="1">
					<dim>1</dim>
					<dim>64</dim>
					<dim>100</dim>
					<dim>127</dim>
				</port>
			</output>
		</layer>
		<layer id="36" name="mul_2" precision="FP32" type="Eltwise">
			<data operation="mul"/>
			<input>
				<port id="0">
					<dim>1</dim>
					<dim>64</dim>
					<dim>100</dim>
					<dim>127</dim>
				</port>
				<port id="1">
					<dim>1</dim>
					<dim>64</dim>
					<dim>100</dim>
					<dim>127</dim>
				</port>
			</input>
			<output>
				<port id="2">
					<dim>1</dim>
					<dim>64</dim>
					<dim>100</dim>
					<dim>127</dim>
				</port>
			</output>
		</layer>
		<layer id="37" name="mul_3/FusedScaleShift_" precision="FP32" type="ScaleShift">
			<input>
				<port id="0">
					<dim>1</dim>
					<dim>64</dim>
					<dim>100</dim>
					<dim>127</dim>
				</port>
			</input>
			<output>
				<port id="3">
					<dim>1</dim>
					<dim>64</dim>
					<dim>100</dim>
					<dim>127</dim>
				</port>
			</output>
			<blobs>
				<weights offset="105088" size="256"/>
				<biases offset="105344" size="256"/>
			</blobs>
		</layer>
		<layer id="38" name="Relu_1" precision="FP32" type="ReLU">
			<input>
				<port id="0">
					<dim>1</dim>
					<dim>64</dim>
					<dim>100</dim>
					<dim>127</dim>
				</port>
			</input>
			<output>
				<port id="1">
					<dim>1</dim>
					<dim>64</dim>
					<dim>100</dim>
					<dim>127</dim>
				</port>
			</output>
		</layer>
		<layer id="39" name="Conv2D_2" precision="FP32" type="Convolution">
			<data auto_pad="same_upper" dilations="1,1" group="1" kernel="3,3" output="128" pads_begin="0,1" pads_end="1,1" strides="2,2"/>
			<input>
				<port id="0">
					<dim>1</dim>
					<dim>64</dim>
					<dim>100</dim>
					<dim>127</dim>
				</port>
			</input>
			<output>
				<port id="2">
					<dim>1</dim>
					<dim>128</dim>
					<dim>50</dim>
					<dim>64</dim>
				</port>
			</output>
			<blobs>
				<weights offset="105600" size="294912"/>
			</blobs>
		</layer>
		<layer id="40" name="moments_2/mean" precision="FP32" type="Pooling">
			<data exclude-pad="true" kernel="50,64" pads_begin="0,0" pads_end="0,0" pool-method="avg" rounding-type="ceil" strides="1,1"/>
			<input>
				<port id="0">
					<dim>1</dim>
					<dim>128</dim>
					<dim>50</dim>
					<dim>64</dim>
				</port>
			</input>
			<output>
				<port id="1">
					<dim>1</dim>
					<dim>128</dim>
					<dim>1</dim>
					<dim>1</dim>
				</port>
			</output>
		</layer>
		<layer id="41" name="sub_2/negate_" precision="FP32" type="Power">
			<data power="1" scale="-1" shift="0"/>
			<input>
				<port id="0">
					<dim>1</dim>
					<dim>128</dim>
					<dim>1</dim>
					<dim>1</dim>
				</port>
			</input>
			<output>
				<port id="1">
					<dim>1</dim>
					<dim>128</dim>
					<dim>1</dim>
					<dim>1</dim>
				</port>
			</output>
		</layer>
		<layer id="42" name="sub_2/add_/Broadcast/" precision="FP32" type="Tile">
			<data axis="2" tiles="50"/>
			<input>
				<port id="0">
					<dim>1</dim>
					<dim>128</dim>
					<dim>1</dim>
					<dim>1</dim>
				</port>
			</input>
			<output>
				<port id="1">
					<dim>1</dim>
					<dim>128</dim>
					<dim>50</dim>
					<dim>1</dim>
				</port>
			</output>
		</layer>
		<layer id="43" name="sub_2/add_/Broadcast/1200" precision="FP32" type="Tile">
			<data axis="3" tiles="64"/>
			<input>
				<port id="0">
					<dim>1</dim>
					<dim>128</dim>
					<dim>50</dim>
					<dim>1</dim>
				</port>
			</input>
			<output>
				<port id="1">
					<dim>1</dim>
					<dim>128</dim>
					<dim>50</dim>
					<dim>64</dim>
				</port>
			</output>
		</layer>
		<layer id="44" name="sub_2/add_" precision="FP32" type="Eltwise">
			<data operation="sum"/>
			<input>
				<port id="0">
					<dim>1</dim>
					<dim>128</dim>
					<dim>50</dim>
					<dim>64</dim>
				</port>
				<port id="1">
					<dim>1</dim>
					<dim>128</dim>
					<dim>50</dim>
					<dim>64</dim>
				</port>
			</input>
			<output>
				<port id="2">
					<dim>1</dim>
					<dim>128</dim>
					<dim>50</dim>
					<dim>64</dim>
				</port>
			</output>
		</layer>
		<layer id="45" name="moments_2/SquaredDifference/negate_" precision="FP32" type="Power">
			<data power="1" scale="-1" shift="0"/>
			<input>
				<port id="0">
					<dim>1</dim>
					<dim>128</dim>
					<dim>1</dim>
					<dim>1</dim>
				</port>
			</input>
			<output>
				<port id="1">
					<dim>1</dim>
					<dim>128</dim>
					<dim>1</dim>
					<dim>1</dim>
				</port>
			</output>
		</layer>
		<layer id="46" name="moments_2/SquaredDifference/add_/Broadcast/" precision="FP32" type="Tile">
			<data axis="2" tiles="50"/>
			<input>
				<port id="0">
					<dim>1</dim>
					<dim>128</dim>
					<dim>1</dim>
					<dim>1</dim>
				</port>
			</input>
			<output>
				<port id="1">
					<dim>1</dim>
					<dim>128</dim>
					<dim>50</dim>
					<dim>1</dim>
				</port>
			</output>
		</layer>
		<layer id="47" name="moments_2/SquaredDifference/add_/Broadcast/1232" precision="FP32" type="Tile">
			<data axis="3" tiles="64"/>
			<input>
				<port id="0">
					<dim>1</dim>
					<dim>128</dim>
					<dim>50</dim>
					<dim>1</dim>
				</port>
			</input>
			<output>
				<port id="1">
					<dim>1</dim>
					<dim>128</dim>
					<dim>50</dim>
					<dim>64</dim>
				</port>
			</output>
		</layer>
		<layer id="48" name="moments_2/SquaredDifference/add_" precision="FP32" type="Eltwise">
			<data operation="sum"/>
			<input>
				<port id="0">
					<dim>1</dim>
					<dim>128</dim>
					<dim>50</dim>
					<dim>64</dim>
				</port>
				<port id="1">
					<dim>1</dim>
					<dim>128</dim>
					<dim>50</dim>
					<dim>64</dim>
				</port>
			</input>
			<output>
				<port id="2">
					<dim>1</dim>
					<dim>128</dim>
					<dim>50</dim>
					<dim>64</dim>
				</port>
			</output>
		</layer>
		<layer id="49" name="moments_2/SquaredDifference/squared_" precision="FP32" type="Power">
			<data power="2" scale="1" shift="0"/>
			<input>
				<port id="0">
					<dim>1</dim>
					<dim>128</dim>
					<dim>50</dim>
					<dim>64</dim>
				</port>
			</input>
			<output>
				<port id="1">
					<dim>1</dim>
					<dim>128</dim>
					<dim>50</dim>
					<dim>64</dim>
				</port>
			</output>
		</layer>
		<layer id="50" name="moments_2/variance" precision="FP32" type="Pooling">
			<data exclude-pad="true" kernel="50,64" pads_begin="0,0" pads_end="0,0" pool-method="avg" rounding-type="ceil" strides="1,1"/>
			<input>
				<port id="0">
					<dim>1</dim>
					<dim>128</dim>
					<dim>50</dim>
					<dim>64</dim>
				</port>
			</input>
			<output>
				<port id="1">
					<dim>1</dim>
					<dim>128</dim>
					<dim>1</dim>
					<dim>1</dim>
				</port>
			</output>
		</layer>
		<layer id="51" name="add_4" precision="FP32" type="Power">
			<data power="1" scale="1" shift="0.0010000000474974513"/>
			<input>
				<port id="0">
					<dim>1</dim>
					<dim>128</dim>
					<dim>1</dim>
					<dim>1</dim>
				</port>
			</input>
			<output>
				<port id="1">
					<dim>1</dim>
					<dim>128</dim>
					<dim>1</dim>
					<dim>1</dim>
				</port>
			</output>
		</layer>
		<layer id="52" name="Rsqrt_2" precision="FP32" type="Power">
			<data power="-0.5" scale="1" shift="0"/>
			<input>
				<port id="0">
					<dim>1</dim>
					<dim>128</dim>
					<dim>1</dim>
					<dim>1</dim>
				</port>
			</input>
			<output>
				<port id="1">
					<dim>1</dim>
					<dim>128</dim>
					<dim>1</dim>
					<dim>1</dim>
				</port>
			</output>
		</layer>
		<layer id="53" name="mul_4/Broadcast/" precision="FP32" type="Tile">
			<data axis="2" tiles="50"/>
			<input>
				<port id="0">
					<dim>1</dim>
					<dim>128</dim>
					<dim>1</dim>
					<dim>1</dim>
				</port>
			</input>
			<output>
				<port id="1">
					<dim>1</dim>
					<dim>128</dim>
					<dim>50</dim>
					<dim>1</dim>
				</port>
			</output>
		</layer>
		<layer id="54" name="mul_4/Broadcast/1192" precision="FP32" type="Tile">
			<data axis="3" tiles="64"/>
			<input>
				<port id="0">
					<dim>1</dim>
					<dim>128</dim>
					<dim>50</dim>
					<dim>1</dim>
				</port>
			</input>
			<output>
				<port id="1">
					<dim>1</dim>
					<dim>128</dim>
					<dim>50</dim>
					<dim>64</dim>
				</port>
			</output>
		</layer>
		<layer id="55" name="mul_4" precision="FP32" type="Eltwise">
			<data operation="mul"/>
			<input>
				<port id="0">
					<dim>1</dim>
					<dim>128</dim>
					<dim>50</dim>
					<dim>64</dim>
				</port>
				<port id="1">
					<dim>1</dim>
					<dim>128</dim>
					<dim>50</dim>
					<dim>64</dim>
				</port>
			</input>
			<output>
				<port id="2">
					<dim>1</dim>
					<dim>128</dim>
					<dim>50</dim>
					<dim>64</dim>
				</port>
			</output>
		</layer>
		<layer id="56" name="mul_5/FusedScaleShift_" precision="FP32" type="ScaleShift">
			<input>
				<port id="0">
					<dim>1</dim>
					<dim>128</dim>
					<dim>50</dim>
					<dim>64</dim>
				</port>
			</input>
			<output>
				<port id="3">
					<dim>1</dim>
					<dim>128</dim>
					<dim>50</dim>
					<dim>64</dim>
				</port>
			</output>
			<blobs>
				<weights offset="400512" size="512"/>
				<biases offset="401024" size="512"/>
			</blobs>
		</layer>
		<layer id="57" name="Relu_2" precision="FP32" type="ReLU">
			<input>
				<port id="0">
					<dim>1</dim>
					<dim>128</dim>
					<dim>50</dim>
					<dim>64</dim>
				</port>
			</input>
			<output>
				<port id="1">
					<dim>1</dim>
					<dim>128</dim>
					<dim>50</dim>
					<dim>64</dim>
				</port>
			</output>
		</layer>
		<layer id="58" name="Conv2D_3" precision="FP32" type="Convolution">
			<data auto_pad="same_upper" dilations="1,1" group="1" kernel="3,3" output="128" pads_begin="1,1" pads_end="1,1" strides="1,1"/>
			<input>
				<port id="0">
					<dim>1</dim>
					<dim>128</dim>
					<dim>50</dim>
					<dim>64</dim>
				</port>
			</input>
			<output>
				<port id="2">
					<dim>1</dim>
					<dim>128</dim>
					<dim>50</dim>
					<dim>64</dim>
				</port>
			</output>
			<blobs>
				<weights offset="401536" size="589824"/>
			</blobs>
		</layer>
		<layer id="59" name="moments_3/mean" precision="FP32" type="Pooling">
			<data exclude-pad="true" kernel="50,64" pads_begin="0,0" pads_end="0,0" pool-method="avg" rounding-type="ceil" strides="1,1"/>
			<input>
				<port id="0">
					<dim>1</dim>
					<dim>128</dim>
					<dim>50</dim>
					<dim>64</dim>
				</port>
			</input>
			<output>
				<port id="1">
					<dim>1</dim>
					<dim>128</dim>
					<dim>1</dim>
					<dim>1</dim>
				</port>
			</output>
		</layer>
		<layer id="60" name="sub_3/negate_" precision="FP32" type="Power">
			<data power="1" scale="-1" shift="0"/>
			<input>
				<port id="0">
					<dim>1</dim>
					<dim>128</dim>
					<dim>1</dim>
					<dim>1</dim>
				</port>
			</input>
			<output>
				<port id="1">
					<dim>1</dim>
					<dim>128</dim>
					<dim>1</dim>
					<dim>1</dim>
				</port>
			</output>
		</layer>
		<layer id="61" name="sub_3/add_/Broadcast/" precision="FP32" type="Tile">
			<data axis="2" tiles="50"/>
			<input>
				<port id="0">
					<dim>1</dim>
					<dim>128</dim>
					<dim>1</dim>
					<dim>1</dim>
				</port>
			</input>
			<output>
				<port id="1">
					<dim>1</dim>
					<dim>128</dim>
					<dim>50</dim>
					<dim>1</dim>
				</port>
			</output>
		</layer>
		<layer id="62" name="sub_3/add_/Broadcast/1128" precision="FP32" type="Tile">
			<data axis="3" tiles="64"/>
			<input>
				<port id="0">
					<dim>1</dim>
					<dim>128</dim>
					<dim>50</dim>
					<dim>1</dim>
				</port>
			</input>
			<output>
				<port id="1">
					<dim>1</dim>
					<dim>128</dim>
					<dim>50</dim>
					<dim>64</dim>
				</port>
			</output>
		</layer>
		<layer id="63" name="sub_3/add_" precision="FP32" type="Eltwise">
			<data operation="sum"/>
			<input>
				<port id="0">
					<dim>1</dim>
					<dim>128</dim>
					<dim>50</dim>
					<dim>64</dim>
				</port>
				<port id="1">
					<dim>1</dim>
					<dim>128</dim>
					<dim>50</dim>
					<dim>64</dim>
				</port>
			</input>
			<output>
				<port id="2">
					<dim>1</dim>
					<dim>128</dim>
					<dim>50</dim>
					<dim>64</dim>
				</port>
			</output>
		</layer>
		<layer id="64" name="moments_3/SquaredDifference/negate_" precision="FP32" type="Power">
			<data power="1" scale="-1" shift="0"/>
			<input>
				<port id="0">
					<dim>1</dim>
					<dim>128</dim>
					<dim>1</dim>
					<dim>1</dim>
				</port>
			</input>
			<output>
				<port id="1">
					<dim>1</dim>
					<dim>128</dim>
					<dim>1</dim>
					<dim>1</dim>
				</port>
			</output>
		</layer>
		<layer id="65" name="moments_3/SquaredDifference/add_/Broadcast/" precision="FP32" type="Tile">
			<data axis="2" tiles="50"/>
			<input>
				<port id="0">
					<dim>1</dim>
					<dim>128</dim>
					<dim>1</dim>
					<dim>1</dim>
				</port>
			</input>
			<output>
				<port id="1">
					<dim>1</dim>
					<dim>128</dim>
					<dim>50</dim>
					<dim>1</dim>
				</port>
			</output>
		</layer>
		<layer id="66" name="moments_3/SquaredDifference/add_/Broadcast/1096" precision="FP32" type="Tile">
			<data axis="3" tiles="64"/>
			<input>
				<port id="0">
					<dim>1</dim>
					<dim>128</dim>
					<dim>50</dim>
					<dim>1</dim>
				</port>
			</input>
			<output>
				<port id="1">
					<dim>1</dim>
					<dim>128</dim>
					<dim>50</dim>
					<dim>64</dim>
				</port>
			</output>
		</layer>
		<layer id="67" name="moments_3/SquaredDifference/add_" precision="FP32" type="Eltwise">
			<data operation="sum"/>
			<input>
				<port id="0">
					<dim>1</dim>
					<dim>128</dim>
					<dim>50</dim>
					<dim>64</dim>
				</port>
				<port id="1">
					<dim>1</dim>
					<dim>128</dim>
					<dim>50</dim>
					<dim>64</dim>
				</port>
			</input>
			<output>
				<port id="2">
					<dim>1</dim>
					<dim>128</dim>
					<dim>50</dim>
					<dim>64</dim>
				</port>
			</output>
		</layer>
		<layer id="68" name="moments_3/SquaredDifference/squared_" precision="FP32" type="Power">
			<data power="2" scale="1" shift="0"/>
			<input>
				<port id="0">
					<dim>1</dim>
					<dim>128</dim>
					<dim>50</dim>
					<dim>64</dim>
				</port>
			</input>
			<output>
				<port id="1">
					<dim>1</dim>
					<dim>128</dim>
					<dim>50</dim>
					<dim>64</dim>
				</port>
			</output>
		</layer>
		<layer id="69" name="moments_3/variance" precision="FP32" type="Pooling">
			<data exclude-pad="true" kernel="50,64" pads_begin="0,0" pads_end="0,0" pool-method="avg" rounding-type="ceil" strides="1,1"/>
			<input>
				<port id="0">
					<dim>1</dim>
					<dim>128</dim>
					<dim>50</dim>
					<dim>64</dim>
				</port>
			</input>
			<output>
				<port id="1">
					<dim>1</dim>
					<dim>128</dim>
					<dim>1</dim>
					<dim>1</dim>
				</port>
			</output>
		</layer>
		<layer id="70" name="add_6" precision="FP32" type="Power">
			<data power="1" scale="1" shift="0.0010000000474974513"/>
			<input>
				<port id="0">
					<dim>1</dim>
					<dim>128</dim>
					<dim>1</dim>
					<dim>1</dim>
				</port>
			</input>
			<output>
				<port id="1">
					<dim>1</dim>
					<dim>128</dim>
					<dim>1</dim>
					<dim>1</dim>
				</port>
			</output>
		</layer>
		<layer id="71" name="Rsqrt_3" precision="FP32" type="Power">
			<data power="-0.5" scale="1" shift="0"/>
			<input>
				<port id="0">
					<dim>1</dim>
					<dim>128</dim>
					<dim>1</dim>
					<dim>1</dim>
				</port>
			</input>
			<output>
				<port id="1">
					<dim>1</dim>
					<dim>128</dim>
					<dim>1</dim>
					<dim>1</dim>
				</port>
			</output>
		</layer>
		<layer id="72" name="mul_6/Broadcast/" precision="FP32" type="Tile">
			<data axis="2" tiles="50"/>
			<input>
				<port id="0">
					<dim>1</dim>
					<dim>128</dim>
					<dim>1</dim>
					<dim>1</dim>
				</port>
			</input>
			<output>
				<port id="1">
					<dim>1</dim>
					<dim>128</dim>
					<dim>50</dim>
					<dim>1</dim>
				</port>
			</output>
		</layer>
		<layer id="73" name="mul_6/Broadcast/1184" precision="FP32" type="Tile">
			<data axis="3" tiles="64"/>
			<input>
				<port id="0">
					<dim>1</dim>
					<dim>128</dim>
					<dim>50</dim>
					<dim>1</dim>
				</port>
			</input>
			<output>
				<port id="1">
					<dim>1</dim>
					<dim>128</dim>
					<dim>50</dim>
					<dim>64</dim>
				</port>
			</output>
		</layer>
		<layer id="74" name="mul_6" precision="FP32" type="Eltwise">
			<data operation="mul"/>
			<input>
				<port id="0">
					<dim>1</dim>
					<dim>128</dim>
					<dim>50</dim>
					<dim>64</dim>
				</port>
				<port id="1">
					<dim>1</dim>
					<dim>128</dim>
					<dim>50</dim>
					<dim>64</dim>
				</port>
			</input>
			<output>
				<port id="2">
					<dim>1</dim>
					<dim>128</dim>
					<dim>50</dim>
					<dim>64</dim>
				</port>
			</output>
		</layer>
		<layer id="75" name="mul_7/FusedScaleShift_" precision="FP32" type="ScaleShift">
			<input>
				<port id="0">
					<dim>1</dim>
					<dim>128</dim>
					<dim>50</dim>
					<dim>64</dim>
				</port>
			</input>
			<output>
				<port id="3">
					<dim>1</dim>
					<dim>128</dim>
					<dim>50</dim>
					<dim>64</dim>
				</port>
			</output>
			<blobs>
				<weights offset="991360" size="512"/>
				<biases offset="991872" size="512"/>
			</blobs>
		</layer>
		<layer id="76" name="Relu_3" precision="FP32" type="ReLU">
			<input>
				<port id="0">
					<dim>1</dim>
					<dim>128</dim>
					<dim>50</dim>
					<dim>64</dim>
				</port>
			</input>
			<output>
				<port id="1">
					<dim>1</dim>
					<dim>128</dim>
					<dim>50</dim>
					<dim>64</dim>
				</port>
			</output>
		</layer>
		<layer id="77" name="Conv2D_4" precision="FP32" type="Convolution">
			<data auto_pad="same_upper" dilations="1,1" group="1" kernel="3,3" output="128" pads_begin="1,1" pads_end="1,1" strides="1,1"/>
			<input>
				<port id="0">
					<dim>1</dim>
					<dim>128</dim>
					<dim>50</dim>
					<dim>64</dim>
				</port>
			</input>
			<output>
				<port id="2">
					<dim>1</dim>
					<dim>128</dim>
					<dim>50</dim>
					<dim>64</dim>
				</port>
			</output>
			<blobs>
				<weights offset="992384" size="589824"/>
			</blobs>
		</layer>
		<layer id="78" name="moments_4/mean" precision="FP32" type="Pooling">
			<data exclude-pad="true" kernel="50,64" pads_begin="0,0" pads_end="0,0" pool-method="avg" rounding-type="ceil" strides="1,1"/>
			<input>
				<port id="0">
					<dim>1</dim>
					<dim>128</dim>
					<dim>50</dim>
					<dim>64</dim>
				</port>
			</input>
			<output>
				<port id="1">
					<dim>1</dim>
					<dim>128</dim>
					<dim>1</dim>
					<dim>1</dim>
				</port>
			</output>
		</layer>
		<layer id="79" name="sub_4/negate_" precision="FP32" type="Power">
			<data power="1" scale="-1" shift="0"/>
			<input>
				<port id="0">
					<dim>1</dim>
					<dim>128</dim>
					<dim>1</dim>
					<dim>1</dim>
				</port>
			</input>
			<output>
				<port id="1">
					<dim>1</dim>
					<dim>128</dim>
					<dim>1</dim>
					<dim>1</dim>
				</port>
			</output>
		</layer>
		<layer id="80" name="sub_4/add_/Broadcast/" precision="FP32" type="Tile">
			<data axis="2" tiles="50"/>
			<input>
				<port id="0">
					<dim>1</dim>
					<dim>128</dim>
					<dim>1</dim>
					<dim>1</dim>
				</port>
			</input>
			<output>
				<port id="1">
					<dim>1</dim>
					<dim>128</dim>
					<dim>50</dim>
					<dim>1</dim>
				</port>
			</output>
		</layer>
		<layer id="81" name="sub_4/add_/Broadcast/1256" precision="FP32" type="Tile">
			<data axis="3" tiles="64"/>
			<input>
				<port id="0">
					<dim>1</dim>
					<dim>128</dim>
					<dim>50</dim>
					<dim>1</dim>
				</port>
			</input>
			<output>
				<port id="1">
					<dim>1</dim>
					<dim>128</dim>
					<dim>50</dim>
					<dim>64</dim>
				</port>
			</output>
		</layer>
		<layer id="82" name="sub_4/add_" precision="FP32" type="Eltwise">
			<data operation="sum"/>
			<input>
				<port id="0">
					<dim>1</dim>
					<dim>128</dim>
					<dim>50</dim>
					<dim>64</dim>
				</port>
				<port id="1">
					<dim>1</dim>
					<dim>128</dim>
					<dim>50</dim>
					<dim>64</dim>
				</port>
			</input>
			<output>
				<port id="2">
					<dim>1</dim>
					<dim>128</dim>
					<dim>50</dim>
					<dim>64</dim>
				</port>
			</output>
		</layer>
		<layer id="83" name="moments_4/SquaredDifference/negate_" precision="FP32" type="Power">
			<data power="1" scale="-1" shift="0"/>
			<input>
				<port id="0">
					<dim>1</dim>
					<dim>128</dim>
					<dim>1</dim>
					<dim>1</dim>
				</port>
			</input>
			<output>
				<port id="1">
					<dim>1</dim>
					<dim>128</dim>
					<dim>1</dim>
					<dim>1</dim>
				</port>
			</output>
		</layer>
		<layer id="84" name="moments_4/SquaredDifference/add_/Broadcast/" precision="FP32" type="Tile">
			<data axis="2" tiles="50"/>
			<input>
				<port id="0">
					<dim>1</dim>
					<dim>128</dim>
					<dim>1</dim>
					<dim>1</dim>
				</port>
			</input>
			<output>
				<port id="1">
					<dim>1</dim>
					<dim>128</dim>
					<dim>50</dim>
					<dim>1</dim>
				</port>
			</output>
		</layer>
		<layer id="85" name="moments_4/SquaredDifference/add_/Broadcast/1172" precision="FP32" type="Tile">
			<data axis="3" tiles="64"/>
			<input>
				<port id="0">
					<dim>1</dim>
					<dim>128</dim>
					<dim>50</dim>
					<dim>1</dim>
				</port>
			</input>
			<output>
				<port id="1">
					<dim>1</dim>
					<dim>128</dim>
					<dim>50</dim>
					<dim>64</dim>
				</port>
			</output>
		</layer>
		<layer id="86" name="moments_4/SquaredDifference/add_" precision="FP32" type="Eltwise">
			<data operation="sum"/>
			<input>
				<port id="0">
					<dim>1</dim>
					<dim>128</dim>
					<dim>50</dim>
					<dim>64</dim>
				</port>
				<port id="1">
					<dim>1</dim>
					<dim>128</dim>
					<dim>50</dim>
					<dim>64</dim>
				</port>
			</input>
			<output>
				<port id="2">
					<dim>1</dim>
					<dim>128</dim>
					<dim>50</dim>
					<dim>64</dim>
				</port>
			</output>
		</layer>
		<layer id="87" name="moments_4/SquaredDifference/squared_" precision="FP32" type="Power">
			<data power="2" scale="1" shift="0"/>
			<input>
				<port id="0">
					<dim>1</dim>
					<dim>128</dim>
					<dim>50</dim>
					<dim>64</dim>
				</port>
			</input>
			<output>
				<port id="1">
					<dim>1</dim>
					<dim>128</dim>
					<dim>50</dim>
					<dim>64</dim>
				</port>
			</output>
		</layer>
		<layer id="88" name="moments_4/variance" precision="FP32" type="Pooling">
			<data exclude-pad="true" kernel="50,64" pads_begin="0,0" pads_end="0,0" pool-method="avg" rounding-type="ceil" strides="1,1"/>
			<input>
				<port id="0">
					<dim>1</dim>
					<dim>128</dim>
					<dim>50</dim>
					<dim>64</dim>
				</port>
			</input>
			<output>
				<port id="1">
					<dim>1</dim>
					<dim>128</dim>
					<dim>1</dim>
					<dim>1</dim>
				</port>
			</output>
		</layer>
		<layer id="89" name="add_8" precision="FP32" type="Power">
			<data power="1" scale="1" shift="0.0010000000474974513"/>
			<input>
				<port id="0">
					<dim>1</dim>
					<dim>128</dim>
					<dim>1</dim>
					<dim>1</dim>
				</port>
			</input>
			<output>
				<port id="1">
					<dim>1</dim>
					<dim>128</dim>
					<dim>1</dim>
					<dim>1</dim>
				</port>
			</output>
		</layer>
		<layer id="90" name="Rsqrt_4" precision="FP32" type="Power">
			<data power="-0.5" scale="1" shift="0"/>
			<input>
				<port id="0">
					<dim>1</dim>
					<dim>128</dim>
					<dim>1</dim>
					<dim>1</dim>
				</port>
			</input>
			<output>
				<port id="1">
					<dim>1</dim>
					<dim>128</dim>
					<dim>1</dim>
					<dim>1</dim>
				</port>
			</output>
		</layer>
		<layer id="91" name="mul_8/Broadcast/" precision="FP32" type="Tile">
			<data axis="2" tiles="50"/>
			<input>
				<port id="0">
					<dim>1</dim>
					<dim>128</dim>
					<dim>1</dim>
					<dim>1</dim>
				</port>
			</input>
			<output>
				<port id="1">
					<dim>1</dim>
					<dim>128</dim>
					<dim>50</dim>
					<dim>1</dim>
				</port>
			</output>
		</layer>
		<layer id="92" name="mul_8/Broadcast/1132" precision="FP32" type="Tile">
			<data axis="3" tiles="64"/>
			<input>
				<port id="0">
					<dim>1</dim>
					<dim>128</dim>
					<dim>50</dim>
					<dim>1</dim>
				</port>
			</input>
			<output>
				<port id="1">
					<dim>1</dim>
					<dim>128</dim>
					<dim>50</dim>
					<dim>64</dim>
				</port>
			</output>
		</layer>
		<layer id="93" name="mul_8" precision="FP32" type="Eltwise">
			<data operation="mul"/>
			<input>
				<port id="0">
					<dim>1</dim>
					<dim>128</dim>
					<dim>50</dim>
					<dim>64</dim>
				</port>
				<port id="1">
					<dim>1</dim>
					<dim>128</dim>
					<dim>50</dim>
					<dim>64</dim>
				</port>
			</input>
			<output>
				<port id="2">
					<dim>1</dim>
					<dim>128</dim>
					<dim>50</dim>
					<dim>64</dim>
				</port>
			</output>
		</layer>
		<layer id="94" name="mul_9/FusedScaleShift_" precision="FP32" type="ScaleShift">
			<input>
				<port id="0">
					<dim>1</dim>
					<dim>128</dim>
					<dim>50</dim>
					<dim>64</dim>
				</port>
			</input>
			<output>
				<port id="3">
					<dim>1</dim>
					<dim>128</dim>
					<dim>50</dim>
					<dim>64</dim>
				</port>
			</output>
			<blobs>
				<weights offset="1582208" size="512"/>
				<biases offset="1582720" size="512"/>
			</blobs>
		</layer>
		<layer id="95" name="add_10" precision="FP32" type="Eltwise">
			<data operation="sum"/>
			<input>
				<port id="0">
					<dim>1</dim>
					<dim>128</dim>
					<dim>50</dim>
					<dim>64</dim>
				</port>
				<port id="1">
					<dim>1</dim>
					<dim>128</dim>
					<dim>50</dim>
					<dim>64</dim>
				</port>
			</input>
			<output>
				<port id="2">
					<dim>1</dim>
					<dim>128</dim>
					<dim>50</dim>
					<dim>64</dim>
				</port>
			</output>
		</layer>
		<layer id="96" name="Conv2D_5" precision="FP32" type="Convolution">
			<data auto_pad="same_upper" dilations="1,1" group="1" kernel="3,3" output="128" pads_begin="1,1" pads_end="1,1" strides="1,1"/>
			<input>
				<port id="0">
					<dim>1</dim>
					<dim>128</dim>
					<dim>50</dim>
					<dim>64</dim>
				</port>
			</input>
			<output>
				<port id="2">
					<dim>1</dim>
					<dim>128</dim>
					<dim>50</dim>
					<dim>64</dim>
				</port>
			</output>
			<blobs>
				<weights offset="1583232" size="589824"/>
			</blobs>
		</layer>
		<layer id="97" name="moments_5/mean" precision="FP32" type="Pooling">
			<data exclude-pad="true" kernel="50,64" pads_begin="0,0" pads_end="0,0" pool-method="avg" rounding-type="ceil" strides="1,1"/>
			<input>
				<port id="0">
					<dim>1</dim>
					<dim>128</dim>
					<dim>50</dim>
					<dim>64</dim>
				</port>
			</input>
			<output>
				<port id="1">
					<dim>1</dim>
					<dim>128</dim>
					<dim>1</dim>
					<dim>1</dim>
				</port>
			</output>
		</layer>
		<layer id="98" name="sub_5/negate_" precision="FP32" type="Power">
			<data power="1" scale="-1" shift="0"/>
			<input>
				<port id="0">
					<dim>1</dim>
					<dim>128</dim>
					<dim>1</dim>
					<dim>1</dim>
				</port>
			</input>
			<output>
				<port id="1">
					<dim>1</dim>
					<dim>128</dim>
					<dim>1</dim>
					<dim>1</dim>
				</port>
			</output>
		</layer>
		<layer id="99" name="sub_5/add_/Broadcast/" precision="FP32" type="Tile">
			<data axis="2" tiles="50"/>
			<input>
				<port id="0">
					<dim>1</dim>
					<dim>128</dim>
					<dim>1</dim>
					<dim>1</dim>
				</port>
			</input>
			<output>
				<port id="1">
					<dim>1</dim>
					<dim>128</dim>
					<dim>50</dim>
					<dim>1</dim>
				</port>
			</output>
		</layer>
		<layer id="100" name="sub_5/add_/Broadcast/1244" precision="FP32" type="Tile">
			<data axis="3" tiles="64"/>
			<input>
				<port id="0">
					<dim>1</dim>
					<dim>128</dim>
					<dim>50</dim>
					<dim>1</dim>
				</port>
			</input>
			<output>
				<port id="1">
					<dim>1</dim>
					<dim>128</dim>
					<dim>50</dim>
					<dim>64</dim>
				</port>
			</output>
		</layer>
		<layer id="101" name="sub_5/add_" precision="FP32" type="Eltwise">
			<data operation="sum"/>
			<input>
				<port id="0">
					<dim>1</dim>
					<dim>128</dim>
					<dim>50</dim>
					<dim>64</dim>
				</port>
				<port id="1">
					<dim>1</dim>
					<dim>128</dim>
					<dim>50</dim>
					<dim>64</dim>
				</port>
			</input>
			<output>
				<port id="2">
					<dim>1</dim>
					<dim>128</dim>
					<dim>50</dim>
					<dim>64</dim>
				</port>
			</output>
		</layer>
		<layer id="102" name="moments_5/SquaredDifference/negate_" precision="FP32" type="Power">
			<data power="1" scale="-1" shift="0"/>
			<input>
				<port id="0">
					<dim>1</dim>
					<dim>128</dim>
					<dim>1</dim>
					<dim>1</dim>
				</port>
			</input>
			<output>
				<port id="1">
					<dim>1</dim>
					<dim>128</dim>
					<dim>1</dim>
					<dim>1</dim>
				</port>
			</output>
		</layer>
		<layer id="103" name="moments_5/SquaredDifference/add_/Broadcast/" precision="FP32" type="Tile">
			<data axis="2" tiles="50"/>
			<input>
				<port id="0">
					<dim>1</dim>
					<dim>128</dim>
					<dim>1</dim>
					<dim>1</dim>
				</port>
			</input>
			<output>
				<port id="1">
					<dim>1</dim>
					<dim>128</dim>
					<dim>50</dim>
					<dim>1</dim>
				</port>
			</output>
		</layer>
		<layer id="104" name="moments_5/SquaredDifference/add_/Broadcast/1212" precision="FP32" type="Tile">
			<data axis="3" tiles="64"/>
			<input>
				<port id="0">
					<dim>1</dim>
					<dim>128</dim>
					<dim>50</dim>
					<dim>1</dim>
				</port>
			</input>
			<output>
				<port id="1">
					<dim>1</dim>
					<dim>128</dim>
					<dim>50</dim>
					<dim>64</dim>
				</port>
			</output>
		</layer>
		<layer id="105" name="moments_5/SquaredDifference/add_" precision="FP32" type="Eltwise">
			<data operation="sum"/>
			<input>
				<port id="0">
					<dim>1</dim>
					<dim>128</dim>
					<dim>50</dim>
					<dim>64</dim>
				</port>
				<port id="1">
					<dim>1</dim>
					<dim>128</dim>
					<dim>50</dim>
					<dim>64</dim>
				</port>
			</input>
			<output>
				<port id="2">
					<dim>1</dim>
					<dim>128</dim>
					<dim>50</dim>
					<dim>64</dim>
				</port>
			</output>
		</layer>
		<layer id="106" name="moments_5/SquaredDifference/squared_" precision="FP32" type="Power">
			<data power="2" scale="1" shift="0"/>
			<input>
				<port id="0">
					<dim>1</dim>
					<dim>128</dim>
					<dim>50</dim>
					<dim>64</dim>
				</port>
			</input>
			<output>
				<port id="1">
					<dim>1</dim>
					<dim>128</dim>
					<dim>50</dim>
					<dim>64</dim>
				</port>
			</output>
		</layer>
		<layer id="107" name="moments_5/variance" precision="FP32" type="Pooling">
			<data exclude-pad="true" kernel="50,64" pads_begin="0,0" pads_end="0,0" pool-method="avg" rounding-type="ceil" strides="1,1"/>
			<input>
				<port id="0">
					<dim>1</dim>
					<dim>128</dim>
					<dim>50</dim>
					<dim>64</dim>
				</port>
			</input>
			<output>
				<port id="1">
					<dim>1</dim>
					<dim>128</dim>
					<dim>1</dim>
					<dim>1</dim>
				</port>
			</output>
		</layer>
		<layer id="108" name="add_11" precision="FP32" type="Power">
			<data power="1" scale="1" shift="0.0010000000474974513"/>
			<input>
				<port id="0">
					<dim>1</dim>
					<dim>128</dim>
					<dim>1</dim>
					<dim>1</dim>
				</port>
			</input>
			<output>
				<port id="1">
					<dim>1</dim>
					<dim>128</dim>
					<dim>1</dim>
					<dim>1</dim>
				</port>
			</output>
		</layer>
		<layer id="109" name="Rsqrt_5" precision="FP32" type="Power">
			<data power="-0.5" scale="1" shift="0"/>
			<input>
				<port id="0">
					<dim>1</dim>
					<dim>128</dim>
					<dim>1</dim>
					<dim>1</dim>
				</port>
			</input>
			<output>
				<port id="1">
					<dim>1</dim>
					<dim>128</dim>
					<dim>1</dim>
					<dim>1</dim>
				</port>
			</output>
		</layer>
		<layer id="110" name="mul_10/Broadcast/" precision="FP32" type="Tile">
			<data axis="2" tiles="50"/>
			<input>
				<port id="0">
					<dim>1</dim>
					<dim>128</dim>
					<dim>1</dim>
					<dim>1</dim>
				</port>
			</input>
			<output>
				<port id="1">
					<dim>1</dim>
					<dim>128</dim>
					<dim>50</dim>
					<dim>1</dim>
				</port>
			</output>
		</layer>
		<layer id="111" name="mul_10/Broadcast/1188" precision="FP32" type="Tile">
			<data axis="3" tiles="64"/>
			<input>
				<port id="0">
					<dim>1</dim>
					<dim>128</dim>
					<dim>50</dim>
					<dim>1</dim>
				</port>
			</input>
			<output>
				<port id="1">
					<dim>1</dim>
					<dim>128</dim>
					<dim>50</dim>
					<dim>64</dim>
				</port>
			</output>
		</layer>
		<layer id="112" name="mul_10" precision="FP32" type="Eltwise">
			<data operation="mul"/>
			<input>
				<port id="0">
					<dim>1</dim>
					<dim>128</dim>
					<dim>50</dim>
					<dim>64</dim>
				</port>
				<port id="1">
					<dim>1</dim>
					<dim>128</dim>
					<dim>50</dim>
					<dim>64</dim>
				</port>
			</input>
			<output>
				<port id="2">
					<dim>1</dim>
					<dim>128</dim>
					<dim>50</dim>
					<dim>64</dim>
				</port>
			</output>
		</layer>
		<layer id="113" name="mul_11/FusedScaleShift_" precision="FP32" type="ScaleShift">
			<input>
				<port id="0">
					<dim>1</dim>
					<dim>128</dim>
					<dim>50</dim>
					<dim>64</dim>
				</port>
			</input>
			<output>
				<port id="3">
					<dim>1</dim>
					<dim>128</dim>
					<dim>50</dim>
					<dim>64</dim>
				</port>
			</output>
			<blobs>
				<weights offset="2173056" size="512"/>
				<biases offset="2173568" size="512"/>
			</blobs>
		</layer>
		<layer id="114" name="Relu_4" precision="FP32" type="ReLU">
			<input>
				<port id="0">
					<dim>1</dim>
					<dim>128</dim>
					<dim>50</dim>
					<dim>64</dim>
				</port>
			</input>
			<output>
				<port id="1">
					<dim>1</dim>
					<dim>128</dim>
					<dim>50</dim>
					<dim>64</dim>
				</port>
			</output>
		</layer>
		<layer id="115" name="Conv2D_6" precision="FP32" type="Convolution">
			<data auto_pad="same_upper" dilations="1,1" group="1" kernel="3,3" output="128" pads_begin="1,1" pads_end="1,1" strides="1,1"/>
			<input>
				<port id="0">
					<dim>1</dim>
					<dim>128</dim>
					<dim>50</dim>
					<dim>64</dim>
				</port>
			</input>
			<output>
				<port id="2">
					<dim>1</dim>
					<dim>128</dim>
					<dim>50</dim>
					<dim>64</dim>
				</port>
			</output>
			<blobs>
				<weights offset="2174080" size="589824"/>
			</blobs>
		</layer>
		<layer id="116" name="moments_6/mean" precision="FP32" type="Pooling">
			<data exclude-pad="true" kernel="50,64" pads_begin="0,0" pads_end="0,0" pool-method="avg" rounding-type="ceil" strides="1,1"/>
			<input>
				<port id="0">
					<dim>1</dim>
					<dim>128</dim>
					<dim>50</dim>
					<dim>64</dim>
				</port>
			</input>
			<output>
				<port id="1">
					<dim>1</dim>
					<dim>128</dim>
					<dim>1</dim>
					<dim>1</dim>
				</port>
			</output>
		</layer>
		<layer id="117" name="sub_6/negate_" precision="FP32" type="Power">
			<data power="1" scale="-1" shift="0"/>
			<input>
				<port id="0">
					<dim>1</dim>
					<dim>128</dim>
					<dim>1</dim>
					<dim>1</dim>
				</port>
			</input>
			<output>
				<port id="1">
					<dim>1</dim>
					<dim>128</dim>
					<dim>1</dim>
					<dim>1</dim>
				</port>
			</output>
		</layer>
		<layer id="118" name="sub_6/add_/Broadcast/" precision="FP32" type="Tile">
			<data axis="2" tiles="50"/>
			<input>
				<port id="0">
					<dim>1</dim>
					<dim>128</dim>
					<dim>1</dim>
					<dim>1</dim>
				</port>
			</input>
			<output>
				<port id="1">
					<dim>1</dim>
					<dim>128</dim>
					<dim>50</dim>
					<dim>1</dim>
				</port>
			</output>
		</layer>
		<layer id="119" name="sub_6/add_/Broadcast/1084" precision="FP32" type="Tile">
			<data axis="3" tiles="64"/>
			<input>
				<port id="0">
					<dim>1</dim>
					<dim>128</dim>
					<dim>50</dim>
					<dim>1</dim>
				</port>
			</input>
			<output>
				<port id="1">
					<dim>1</dim>
					<dim>128</dim>
					<dim>50</dim>
					<dim>64</dim>
				</port>
			</output>
		</layer>
		<layer id="120" name="sub_6/add_" precision="FP32" type="Eltwise">
			<data operation="sum"/>
			<input>
				<port id="0">
					<dim>1</dim>
					<dim>128</dim>
					<dim>50</dim>
					<dim>64</dim>
				</port>
				<port id="1">
					<dim>1</dim>
					<dim>128</dim>
					<dim>50</dim>
					<dim>64</dim>
				</port>
			</input>
			<output>
				<port id="2">
					<dim>1</dim>
					<dim>128</dim>
					<dim>50</dim>
					<dim>64</dim>
				</port>
			</output>
		</layer>
		<layer id="121" name="moments_6/SquaredDifference/negate_" precision="FP32" type="Power">
			<data power="1" scale="-1" shift="0"/>
			<input>
				<port id="0">
					<dim>1</dim>
					<dim>128</dim>
					<dim>1</dim>
					<dim>1</dim>
				</port>
			</input>
			<output>
				<port id="1">
					<dim>1</dim>
					<dim>128</dim>
					<dim>1</dim>
					<dim>1</dim>
				</port>
			</output>
		</layer>
		<layer id="122" name="moments_6/SquaredDifference/add_/Broadcast/" precision="FP32" type="Tile">
			<data axis="2" tiles="50"/>
			<input>
				<port id="0">
					<dim>1</dim>
					<dim>128</dim>
					<dim>1</dim>
					<dim>1</dim>
				</port>
			</input>
			<output>
				<port id="1">
					<dim>1</dim>
					<dim>128</dim>
					<dim>50</dim>
					<dim>1</dim>
				</port>
			</output>
		</layer>
		<layer id="123" name="moments_6/SquaredDifference/add_/Broadcast/1252" precision="FP32" type="Tile">
			<data axis="3" tiles="64"/>
			<input>
				<port id="0">
					<dim>1</dim>
					<dim>128</dim>
					<dim>50</dim>
					<dim>1</dim>
				</port>
			</input>
			<output>
				<port id="1">
					<dim>1</dim>
					<dim>128</dim>
					<dim>50</dim>
					<dim>64</dim>
				</port>
			</output>
		</layer>
		<layer id="124" name="moments_6/SquaredDifference/add_" precision="FP32" type="Eltwise">
			<data operation="sum"/>
			<input>
				<port id="0">
					<dim>1</dim>
					<dim>128</dim>
					<dim>50</dim>
					<dim>64</dim>
				</port>
				<port id="1">
					<dim>1</dim>
					<dim>128</dim>
					<dim>50</dim>
					<dim>64</dim>
				</port>
			</input>
			<output>
				<port id="2">
					<dim>1</dim>
					<dim>128</dim>
					<dim>50</dim>
					<dim>64</dim>
				</port>
			</output>
		</layer>
		<layer id="125" name="moments_6/SquaredDifference/squared_" precision="FP32" type="Power">
			<data power="2" scale="1" shift="0"/>
			<input>
				<port id="0">
					<dim>1</dim>
					<dim>128</dim>
					<dim>50</dim>
					<dim>64</dim>
				</port>
			</input>
			<output>
				<port id="1">
					<dim>1</dim>
					<dim>128</dim>
					<dim>50</dim>
					<dim>64</dim>
				</port>
			</output>
		</layer>
		<layer id="126" name="moments_6/variance" precision="FP32" type="Pooling">
			<data exclude-pad="true" kernel="50,64" pads_begin="0,0" pads_end="0,0" pool-method="avg" rounding-type="ceil" strides="1,1"/>
			<input>
				<port id="0">
					<dim>1</dim>
					<dim>128</dim>
					<dim>50</dim>
					<dim>64</dim>
				</port>
			</input>
			<output>
				<port id="1">
					<dim>1</dim>
					<dim>128</dim>
					<dim>1</dim>
					<dim>1</dim>
				</port>
			</output>
		</layer>
		<layer id="127" name="add_13" precision="FP32" type="Power">
			<data power="1" scale="1" shift="0.0010000000474974513"/>
			<input>
				<port id="0">
					<dim>1</dim>
					<dim>128</dim>
					<dim>1</dim>
					<dim>1</dim>
				</port>
			</input>
			<output>
				<port id="1">
					<dim>1</dim>
					<dim>128</dim>
					<dim>1</dim>
					<dim>1</dim>
				</port>
			</output>
		</layer>
		<layer id="128" name="Rsqrt_6" precision="FP32" type="Power">
			<data power="-0.5" scale="1" shift="0"/>
			<input>
				<port id="0">
					<dim>1</dim>
					<dim>128</dim>
					<dim>1</dim>
					<dim>1</dim>
				</port>
			</input>
			<output>
				<port id="1">
					<dim>1</dim>
					<dim>128</dim>
					<dim>1</dim>
					<dim>1</dim>
				</port>
			</output>
		</layer>
		<layer id="129" name="mul_12/Broadcast/" precision="FP32" type="Tile">
			<data axis="2" tiles="50"/>
			<input>
				<port id="0">
					<dim>1</dim>
					<dim>128</dim>
					<dim>1</dim>
					<dim>1</dim>
				</port>
			</input>
			<output>
				<port id="1">
					<dim>1</dim>
					<dim>128</dim>
					<dim>50</dim>
					<dim>1</dim>
				</port>
			</output>
		</layer>
		<layer id="130" name="mul_12/Broadcast/1100" precision="FP32" type="Tile">
			<data axis="3" tiles="64"/>
			<input>
				<port id="0">
					<dim>1</dim>
					<dim>128</dim>
					<dim>50</dim>
					<dim>1</dim>
				</port>
			</input>
			<output>
				<port id="1">
					<dim>1</dim>
					<dim>128</dim>
					<dim>50</dim>
					<dim>64</dim>
				</port>
			</output>
		</layer>
		<layer id="131" name="mul_12" precision="FP32" type="Eltwise">
			<data operation="mul"/>
			<input>
				<port id="0">
					<dim>1</dim>
					<dim>128</dim>
					<dim>50</dim>
					<dim>64</dim>
				</port>
				<port id="1">
					<dim>1</dim>
					<dim>128</dim>
					<dim>50</dim>
					<dim>64</dim>
				</port>
			</input>
			<output>
				<port id="2">
					<dim>1</dim>
					<dim>128</dim>
					<dim>50</dim>
					<dim>64</dim>
				</port>
			</output>
		</layer>
		<layer id="132" name="mul_13/FusedScaleShift_" precision="FP32" type="ScaleShift">
			<input>
				<port id="0">
					<dim>1</dim>
					<dim>128</dim>
					<dim>50</dim>
					<dim>64</dim>
				</port>
			</input>
			<output>
				<port id="3">
					<dim>1</dim>
					<dim>128</dim>
					<dim>50</dim>
					<dim>64</dim>
				</port>
			</output>
			<blobs>
				<weights offset="2763904" size="512"/>
				<biases offset="2764416" size="512"/>
			</blobs>
		</layer>
		<layer id="133" name="add_15" precision="FP32" type="Eltwise">
			<data operation="sum"/>
			<input>
				<port id="0">
					<dim>1</dim>
					<dim>128</dim>
					<dim>50</dim>
					<dim>64</dim>
				</port>
				<port id="1">
					<dim>1</dim>
					<dim>128</dim>
					<dim>50</dim>
					<dim>64</dim>
				</port>
			</input>
			<output>
				<port id="2">
					<dim>1</dim>
					<dim>128</dim>
					<dim>50</dim>
					<dim>64</dim>
				</port>
			</output>
		</layer>
		<layer id="134" name="Conv2D_7" precision="FP32" type="Convolution">
			<data auto_pad="same_upper" dilations="1,1" group="1" kernel="3,3" output="128" pads_begin="1,1" pads_end="1,1" strides="1,1"/>
			<input>
				<port id="0">
					<dim>1</dim>
					<dim>128</dim>
					<dim>50</dim>
					<dim>64</dim>
				</port>
			</input>
			<output>
				<port id="2">
					<dim>1</dim>
					<dim>128</dim>
					<dim>50</dim>
					<dim>64</dim>
				</port>
			</output>
			<blobs>
				<weights offset="2764928" size="589824"/>
			</blobs>
		</layer>
		<layer id="135" name="moments_7/mean" precision="FP32" type="Pooling">
			<data exclude-pad="true" kernel="50,64" pads_begin="0,0" pads_end="0,0" pool-method="avg" rounding-type="ceil" strides="1,1"/>
			<input>
				<port id="0">
					<dim>1</dim>
					<dim>128</dim>
					<dim>50</dim>
					<dim>64</dim>
				</port>
			</input>
			<output>
				<port id="1">
					<dim>1</dim>
					<dim>128</dim>
					<dim>1</dim>
					<dim>1</dim>
				</port>
			</output>
		</layer>
		<layer id="136" name="sub_7/negate_" precision="FP32" type="Power">
			<data power="1" scale="-1" shift="0"/>
			<input>
				<port id="0">
					<dim>1</dim>
					<dim>128</dim>
					<dim>1</dim>
					<dim>1</dim>
				</port>
			</input>
			<output>
				<port id="1">
					<dim>1</dim>
					<dim>128</dim>
					<dim>1</dim>
					<dim>1</dim>
				</port>
			</output>
		</layer>
		<layer id="137" name="sub_7/add_/Broadcast/" precision="FP32" type="Tile">
			<data axis="2" tiles="50"/>
			<input>
				<port id="0">
					<dim>1</dim>
					<dim>128</dim>
					<dim>1</dim>
					<dim>1</dim>
				</port>
			</input>
			<output>
				<port id="1">
					<dim>1</dim>
					<dim>128</dim>
					<dim>50</dim>
					<dim>1</dim>
				</port>
			</output>
		</layer>
		<layer id="138" name="sub_7/add_/Broadcast/1144" precision="FP32" type="Tile">
			<data axis="3" tiles="64"/>
			<input>
				<port id="0">
					<dim>1</dim>
					<dim>128</dim>
					<dim>50</dim>
					<dim>1</dim>
				</port>
			</input>
			<output>
				<port id="1">
					<dim>1</dim>
					<dim>128</dim>
					<dim>50</dim>
					<dim>64</dim>
				</port>
			</output>
		</layer>
		<layer id="139" name="sub_7/add_" precision="FP32" type="Eltwise">
			<data operation="sum"/>
			<input>
				<port id="0">
					<dim>1</dim>
					<dim>128</dim>
					<dim>50</dim>
					<dim>64</dim>
				</port>
				<port id="1">
					<dim>1</dim>
					<dim>128</dim>
					<dim>50</dim>
					<dim>64</dim>
				</port>
			</input>
			<output>
				<port id="2">
					<dim>1</dim>
					<dim>128</dim>
					<dim>50</dim>
					<dim>64</dim>
				</port>
			</output>
		</layer>
		<layer id="140" name="moments_7/SquaredDifference/negate_" precision="FP32" type="Power">
			<data power="1" scale="-1" shift="0"/>
			<input>
				<port id="0">
					<dim>1</dim>
					<dim>128</dim>
					<dim>1</dim>
					<dim>1</dim>
				</port>
			</input>
			<output>
				<port id="1">
					<dim>1</dim>
					<dim>128</dim>
					<dim>1</dim>
					<dim>1</dim>
				</port>
			</output>
		</layer>
		<layer id="141" name="moments_7/SquaredDifference/add_/Broadcast/" precision="FP32" type="Tile">
			<data axis="2" tiles="50"/>
			<input>
				<port id="0">
					<dim>1</dim>
					<dim>128</dim>
					<dim>1</dim>
					<dim>1</dim>
				</port>
			</input>
			<output>
				<port id="1">
					<dim>1</dim>
					<dim>128</dim>
					<dim>50</dim>
					<dim>1</dim>
				</port>
			</output>
		</layer>
		<layer id="142" name="moments_7/SquaredDifference/add_/Broadcast/1240" precision="FP32" type="Tile">
			<data axis="3" tiles="64"/>
			<input>
				<port id="0">
					<dim>1</dim>
					<dim>128</dim>
					<dim>50</dim>
					<dim>1</dim>
				</port>
			</input>
			<output>
				<port id="1">
					<dim>1</dim>
					<dim>128</dim>
					<dim>50</dim>
					<dim>64</dim>
				</port>
			</output>
		</layer>
		<layer id="143" name="moments_7/SquaredDifference/add_" precision="FP32" type="Eltwise">
			<data operation="sum"/>
			<input>
				<port id="0">
					<dim>1</dim>
					<dim>128</dim>
					<dim>50</dim>
					<dim>64</dim>
				</port>
				<port id="1">
					<dim>1</dim>
					<dim>128</dim>
					<dim>50</dim>
					<dim>64</dim>
				</port>
			</input>
			<output>
				<port id="2">
					<dim>1</dim>
					<dim>128</dim>
					<dim>50</dim>
					<dim>64</dim>
				</port>
			</output>
		</layer>
		<layer id="144" name="moments_7/SquaredDifference/squared_" precision="FP32" type="Power">
			<data power="2" scale="1" shift="0"/>
			<input>
				<port id="0">
					<dim>1</dim>
					<dim>128</dim>
					<dim>50</dim>
					<dim>64</dim>
				</port>
			</input>
			<output>
				<port id="1">
					<dim>1</dim>
					<dim>128</dim>
					<dim>50</dim>
					<dim>64</dim>
				</port>
			</output>
		</layer>
		<layer id="145" name="moments_7/variance" precision="FP32" type="Pooling">
			<data exclude-pad="true" kernel="50,64" pads_begin="0,0" pads_end="0,0" pool-method="avg" rounding-type="ceil" strides="1,1"/>
			<input>
				<port id="0">
					<dim>1</dim>
					<dim>128</dim>
					<dim>50</dim>
					<dim>64</dim>
				</port>
			</input>
			<output>
				<port id="1">
					<dim>1</dim>
					<dim>128</dim>
					<dim>1</dim>
					<dim>1</dim>
				</port>
			</output>
		</layer>
		<layer id="146" name="add_16" precision="FP32" type="Power">
			<data power="1" scale="1" shift="0.0010000000474974513"/>
			<input>
				<port id="0">
					<dim>1</dim>
					<dim>128</dim>
					<dim>1</dim>
					<dim>1</dim>
				</port>
			</input>
			<output>
				<port id="1">
					<dim>1</dim>
					<dim>128</dim>
					<dim>1</dim>
					<dim>1</dim>
				</port>
			</output>
		</layer>
		<layer id="147" name="Rsqrt_7" precision="FP32" type="Power">
			<data power="-0.5" scale="1" shift="0"/>
			<input>
				<port id="0">
					<dim>1</dim>
					<dim>128</dim>
					<dim>1</dim>
					<dim>1</dim>
				</port>
			</input>
			<output>
				<port id="1">
					<dim>1</dim>
					<dim>128</dim>
					<dim>1</dim>
					<dim>1</dim>
				</port>
			</output>
		</layer>
		<layer id="148" name="mul_14/Broadcast/" precision="FP32" type="Tile">
			<data axis="2" tiles="50"/>
			<input>
				<port id="0">
					<dim>1</dim>
					<dim>128</dim>
					<dim>1</dim>
					<dim>1</dim>
				</port>
			</input>
			<output>
				<port id="1">
					<dim>1</dim>
					<dim>128</dim>
					<dim>50</dim>
					<dim>1</dim>
				</port>
			</output>
		</layer>
		<layer id="149" name="mul_14/Broadcast/1140" precision="FP32" type="Tile">
			<data axis="3" tiles="64"/>
			<input>
				<port id="0">
					<dim>1</dim>
					<dim>128</dim>
					<dim>50</dim>
					<dim>1</dim>
				</port>
			</input>
			<output>
				<port id="1">
					<dim>1</dim>
					<dim>128</dim>
					<dim>50</dim>
					<dim>64</dim>
				</port>
			</output>
		</layer>
		<layer id="150" name="mul_14" precision="FP32" type="Eltwise">
			<data operation="mul"/>
			<input>
				<port id="0">
					<dim>1</dim>
					<dim>128</dim>
					<dim>50</dim>
					<dim>64</dim>
				</port>
				<port id="1">
					<dim>1</dim>
					<dim>128</dim>
					<dim>50</dim>
					<dim>64</dim>
				</port>
			</input>
			<output>
				<port id="2">
					<dim>1</dim>
					<dim>128</dim>
					<dim>50</dim>
					<dim>64</dim>
				</port>
			</output>
		</layer>
		<layer id="151" name="mul_15/FusedScaleShift_" precision="FP32" type="ScaleShift">
			<input>
				<port id="0">
					<dim>1</dim>
					<dim>128</dim>
					<dim>50</dim>
					<dim>64</dim>
				</port>
			</input>
			<output>
				<port id="3">
					<dim>1</dim>
					<dim>128</dim>
					<dim>50</dim>
					<dim>64</dim>
				</port>
			</output>
			<blobs>
				<weights offset="3354752" size="512"/>
				<biases offset="3355264" size="512"/>
			</blobs>
		</layer>
		<layer id="152" name="Relu_5" precision="FP32" type="ReLU">
			<input>
				<port id="0">
					<dim>1</dim>
					<dim>128</dim>
					<dim>50</dim>
					<dim>64</dim>
				</port>
			</input>
			<output>
				<port id="1">
					<dim>1</dim>
					<dim>128</dim>
					<dim>50</dim>
					<dim>64</dim>
				</port>
			</output>
		</layer>
		<layer id="153" name="Conv2D_8" precision="FP32" type="Convolution">
			<data auto_pad="same_upper" dilations="1,1" group="1" kernel="3,3" output="128" pads_begin="1,1" pads_end="1,1" strides="1,1"/>
			<input>
				<port id="0">
					<dim>1</dim>
					<dim>128</dim>
					<dim>50</dim>
					<dim>64</dim>
				</port>
			</input>
			<output>
				<port id="2">
					<dim>1</dim>
					<dim>128</dim>
					<dim>50</dim>
					<dim>64</dim>
				</port>
			</output>
			<blobs>
				<weights offset="3355776" size="589824"/>
			</blobs>
		</layer>
		<layer id="154" name="moments_8/mean" precision="FP32" type="Pooling">
			<data exclude-pad="true" kernel="50,64" pads_begin="0,0" pads_end="0,0" pool-method="avg" rounding-type="ceil" strides="1,1"/>
			<input>
				<port id="0">
					<dim>1</dim>
					<dim>128</dim>
					<dim>50</dim>
					<dim>64</dim>
				</port>
			</input>
			<output>
				<port id="1">
					<dim>1</dim>
					<dim>128</dim>
					<dim>1</dim>
					<dim>1</dim>
				</port>
			</output>
		</layer>
		<layer id="155" name="sub_8/negate_" precision="FP32" type="Power">
			<data power="1" scale="-1" shift="0"/>
			<input>
				<port id="0">
					<dim>1</dim>
					<dim>128</dim>
					<dim>1</dim>
					<dim>1</dim>
				</port>
			</input>
			<output>
				<port id="1">
					<dim>1</dim>
					<dim>128</dim>
					<dim>1</dim>
					<dim>1</dim>
				</port>
			</output>
		</layer>
		<layer id="156" name="sub_8/add_/Broadcast/" precision="FP32" type="Tile">
			<data axis="2" tiles="50"/>
			<input>
				<port id="0">
					<dim>1</dim>
					<dim>128</dim>
					<dim>1</dim>
					<dim>1</dim>
				</port>
			</input>
			<output>
				<port id="1">
					<dim>1</dim>
					<dim>128</dim>
					<dim>50</dim>
					<dim>1</dim>
				</port>
			</output>
		</layer>
		<layer id="157" name="sub_8/add_/Broadcast/1168" precision="FP32" type="Tile">
			<data axis="3" tiles="64"/>
			<input>
				<port id="0">
					<dim>1</dim>
					<dim>128</dim>
					<dim>50</dim>
					<dim>1</dim>
				</port>
			</input>
			<output>
				<port id="1">
					<dim>1</dim>
					<dim>128</dim>
					<dim>50</dim>
					<dim>64</dim>
				</port>
			</output>
		</layer>
		<layer id="158" name="sub_8/add_" precision="FP32" type="Eltwise">
			<data operation="sum"/>
			<input>
				<port id="0">
					<dim>1</dim>
					<dim>128</dim>
					<dim>50</dim>
					<dim>64</dim>
				</port>
				<port id="1">
					<dim>1</dim>
					<dim>128</dim>
					<dim>50</dim>
					<dim>64</dim>
				</port>
			</input>
			<output>
				<port id="2">
					<dim>1</dim>
					<dim>128</dim>
					<dim>50</dim>
					<dim>64</dim>
				</port>
			</output>
		</layer>
		<layer id="159" name="moments_8/SquaredDifference/negate_" precision="FP32" type="Power">
			<data power="1" scale="-1" shift="0"/>
			<input>
				<port id="0">
					<dim>1</dim>
					<dim>128</dim>
					<dim>1</dim>
					<dim>1</dim>
				</port>
			</input>
			<output>
				<port id="1">
					<dim>1</dim>
					<dim>128</dim>
					<dim>1</dim>
					<dim>1</dim>
				</port>
			</output>
		</layer>
		<layer id="160" name="moments_8/SquaredDifference/add_/Broadcast/" precision="FP32" type="Tile">
			<data axis="2" tiles="50"/>
			<input>
				<port id="0">
					<dim>1</dim>
					<dim>128</dim>
					<dim>1</dim>
					<dim>1</dim>
				</port>
			</input>
			<output>
				<port id="1">
					<dim>1</dim>
					<dim>128</dim>
					<dim>50</dim>
					<dim>1</dim>
				</port>
			</output>
		</layer>
		<layer id="161" name="moments_8/SquaredDifference/add_/Broadcast/1136" precision="FP32" type="Tile">
			<data axis="3" tiles="64"/>
			<input>
				<port id="0">
					<dim>1</dim>
					<dim>128</dim>
					<dim>50</dim>
					<dim>1</dim>
				</port>
			</input>
			<output>
				<port id="1">
					<dim>1</dim>
					<dim>128</dim>
					<dim>50</dim>
					<dim>64</dim>
				</port>
			</output>
		</layer>
		<layer id="162" name="moments_8/SquaredDifference/add_" precision="FP32" type="Eltwise">
			<data operation="sum"/>
			<input>
				<port id="0">
					<dim>1</dim>
					<dim>128</dim>
					<dim>50</dim>
					<dim>64</dim>
				</port>
				<port id="1">
					<dim>1</dim>
					<dim>128</dim>
					<dim>50</dim>
					<dim>64</dim>
				</port>
			</input>
			<output>
				<port id="2">
					<dim>1</dim>
					<dim>128</dim>
					<dim>50</dim>
					<dim>64</dim>
				</port>
			</output>
		</layer>
		<layer id="163" name="moments_8/SquaredDifference/squared_" precision="FP32" type="Power">
			<data power="2" scale="1" shift="0"/>
			<input>
				<port id="0">
					<dim>1</dim>
					<dim>128</dim>
					<dim>50</dim>
					<dim>64</dim>
				</port>
			</input>
			<output>
				<port id="1">
					<dim>1</dim>
					<dim>128</dim>
					<dim>50</dim>
					<dim>64</dim>
				</port>
			</output>
		</layer>
		<layer id="164" name="moments_8/variance" precision="FP32" type="Pooling">
			<data exclude-pad="true" kernel="50,64" pads_begin="0,0" pads_end="0,0" pool-method="avg" rounding-type="ceil" strides="1,1"/>
			<input>
				<port id="0">
					<dim>1</dim>
					<dim>128</dim>
					<dim>50</dim>
					<dim>64</dim>
				</port>
			</input>
			<output>
				<port id="1">
					<dim>1</dim>
					<dim>128</dim>
					<dim>1</dim>
					<dim>1</dim>
				</port>
			</output>
		</layer>
		<layer id="165" name="add_18" precision="FP32" type="Power">
			<data power="1" scale="1" shift="0.0010000000474974513"/>
			<input>
				<port id="0">
					<dim>1</dim>
					<dim>128</dim>
					<dim>1</dim>
					<dim>1</dim>
				</port>
			</input>
			<output>
				<port id="1">
					<dim>1</dim>
					<dim>128</dim>
					<dim>1</dim>
					<dim>1</dim>
				</port>
			</output>
		</layer>
		<layer id="166" name="Rsqrt_8" precision="FP32" type="Power">
			<data power="-0.5" scale="1" shift="0"/>
			<input>
				<port id="0">
					<dim>1</dim>
					<dim>128</dim>
					<dim>1</dim>
					<dim>1</dim>
				</port>
			</input>
			<output>
				<port id="1">
					<dim>1</dim>
					<dim>128</dim>
					<dim>1</dim>
					<dim>1</dim>
				</port>
			</output>
		</layer>
		<layer id="167" name="mul_16/Broadcast/" precision="FP32" type="Tile">
			<data axis="2" tiles="50"/>
			<input>
				<port id="0">
					<dim>1</dim>
					<dim>128</dim>
					<dim>1</dim>
					<dim>1</dim>
				</port>
			</input>
			<output>
				<port id="1">
					<dim>1</dim>
					<dim>128</dim>
					<dim>50</dim>
					<dim>1</dim>
				</port>
			</output>
		</layer>
		<layer id="168" name="mul_16/Broadcast/1152" precision="FP32" type="Tile">
			<data axis="3" tiles="64"/>
			<input>
				<port id="0">
					<dim>1</dim>
					<dim>128</dim>
					<dim>50</dim>
					<dim>1</dim>
				</port>
			</input>
			<output>
				<port id="1">
					<dim>1</dim>
					<dim>128</dim>
					<dim>50</dim>
					<dim>64</dim>
				</port>
			</output>
		</layer>
		<layer id="169" name="mul_16" precision="FP32" type="Eltwise">
			<data operation="mul"/>
			<input>
				<port id="0">
					<dim>1</dim>
					<dim>128</dim>
					<dim>50</dim>
					<dim>64</dim>
				</port>
				<port id="1">
					<dim>1</dim>
					<dim>128</dim>
					<dim>50</dim>
					<dim>64</dim>
				</port>
			</input>
			<output>
				<port id="2">
					<dim>1</dim>
					<dim>128</dim>
					<dim>50</dim>
					<dim>64</dim>
				</port>
			</output>
		</layer>
		<layer id="170" name="mul_17/FusedScaleShift_" precision="FP32" type="ScaleShift">
			<input>
				<port id="0">
					<dim>1</dim>
					<dim>128</dim>
					<dim>50</dim>
					<dim>64</dim>
				</port>
			</input>
			<output>
				<port id="3">
					<dim>1</dim>
					<dim>128</dim>
					<dim>50</dim>
					<dim>64</dim>
				</port>
			</output>
			<blobs>
				<weights offset="3945600" size="512"/>
				<biases offset="3946112" size="512"/>
			</blobs>
		</layer>
		<layer id="171" name="add_20" precision="FP32" type="Eltwise">
			<data operation="sum"/>
			<input>
				<port id="0">
					<dim>1</dim>
					<dim>128</dim>
					<dim>50</dim>
					<dim>64</dim>
				</port>
				<port id="1">
					<dim>1</dim>
					<dim>128</dim>
					<dim>50</dim>
					<dim>64</dim>
				</port>
			</input>
			<output>
				<port id="2">
					<dim>1</dim>
					<dim>128</dim>
					<dim>50</dim>
					<dim>64</dim>
				</port>
			</output>
		</layer>
		<layer id="172" name="Conv2D_9" precision="FP32" type="Convolution">
			<data auto_pad="same_upper" dilations="1,1" group="1" kernel="3,3" output="128" pads_begin="1,1" pads_end="1,1" strides="1,1"/>
			<input>
				<port id="0">
					<dim>1</dim>
					<dim>128</dim>
					<dim>50</dim>
					<dim>64</dim>
				</port>
			</input>
			<output>
				<port id="2">
					<dim>1</dim>
					<dim>128</dim>
					<dim>50</dim>
					<dim>64</dim>
				</port>
			</output>
			<blobs>
				<weights offset="3946624" size="589824"/>
			</blobs>
		</layer>
		<layer id="173" name="moments_9/mean" precision="FP32" type="Pooling">
			<data exclude-pad="true" kernel="50,64" pads_begin="0,0" pads_end="0,0" pool-method="avg" rounding-type="ceil" strides="1,1"/>
			<input>
				<port id="0">
					<dim>1</dim>
					<dim>128</dim>
					<dim>50</dim>
					<dim>64</dim>
				</port>
			</input>
			<output>
				<port id="1">
					<dim>1</dim>
					<dim>128</dim>
					<dim>1</dim>
					<dim>1</dim>
				</port>
			</output>
		</layer>
		<layer id="174" name="sub_9/negate_" precision="FP32" type="Power">
			<data power="1" scale="-1" shift="0"/>
			<input>
				<port id="0">
					<dim>1</dim>
					<dim>128</dim>
					<dim>1</dim>
					<dim>1</dim>
				</port>
			</input>
			<output>
				<port id="1">
					<dim>1</dim>
					<dim>128</dim>
					<dim>1</dim>
					<dim>1</dim>
				</port>
			</output>
		</layer>
		<layer id="175" name="sub_9/add_/Broadcast/" precision="FP32" type="Tile">
			<data axis="2" tiles="50"/>
			<input>
				<port id="0">
					<dim>1</dim>
					<dim>128</dim>
					<dim>1</dim>
					<dim>1</dim>
				</port>
			</input>
			<output>
				<port id="1">
					<dim>1</dim>
					<dim>128</dim>
					<dim>50</dim>
					<dim>1</dim>
				</port>
			</output>
		</layer>
		<layer id="176" name="sub_9/add_/Broadcast/1176" precision="FP32" type="Tile">
			<data axis="3" tiles="64"/>
			<input>
				<port id="0">
					<dim>1</dim>
					<dim>128</dim>
					<dim>50</dim>
					<dim>1</dim>
				</port>
			</input>
			<output>
				<port id="1">
					<dim>1</dim>
					<dim>128</dim>
					<dim>50</dim>
					<dim>64</dim>
				</port>
			</output>
		</layer>
		<layer id="177" name="sub_9/add_" precision="FP32" type="Eltwise">
			<data operation="sum"/>
			<input>
				<port id="0">
					<dim>1</dim>
					<dim>128</dim>
					<dim>50</dim>
					<dim>64</dim>
				</port>
				<port id="1">
					<dim>1</dim>
					<dim>128</dim>
					<dim>50</dim>
					<dim>64</dim>
				</port>
			</input>
			<output>
				<port id="2">
					<dim>1</dim>
					<dim>128</dim>
					<dim>50</dim>
					<dim>64</dim>
				</port>
			</output>
		</layer>
		<layer id="178" name="moments_9/SquaredDifference/negate_" precision="FP32" type="Power">
			<data power="1" scale="-1" shift="0"/>
			<input>
				<port id="0">
					<dim>1</dim>
					<dim>128</dim>
					<dim>1</dim>
					<dim>1</dim>
				</port>
			</input>
			<output>
				<port id="1">
					<dim>1</dim>
					<dim>128</dim>
					<dim>1</dim>
					<dim>1</dim>
				</port>
			</output>
		</layer>
		<layer id="179" name="moments_9/SquaredDifference/add_/Broadcast/" precision="FP32" type="Tile">
			<data axis="2" tiles="50"/>
			<input>
				<port id="0">
					<dim>1</dim>
					<dim>128</dim>
					<dim>1</dim>
					<dim>1</dim>
				</port>
			</input>
			<output>
				<port id="1">
					<dim>1</dim>
					<dim>128</dim>
					<dim>50</dim>
					<dim>1</dim>
				</port>
			</output>
		</layer>
		<layer id="180" name="moments_9/SquaredDifference/add_/Broadcast/1204" precision="FP32" type="Tile">
			<data axis="3" tiles="64"/>
			<input>
				<port id="0">
					<dim>1</dim>
					<dim>128</dim>
					<dim>50</dim>
					<dim>1</dim>
				</port>
			</input>
			<output>
				<port id="1">
					<dim>1</dim>
					<dim>128</dim>
					<dim>50</dim>
					<dim>64</dim>
				</port>
			</output>
		</layer>
		<layer id="181" name="moments_9/SquaredDifference/add_" precision="FP32" type="Eltwise">
			<data operation="sum"/>
			<input>
				<port id="0">
					<dim>1</dim>
					<dim>128</dim>
					<dim>50</dim>
					<dim>64</dim>
				</port>
				<port id="1">
					<dim>1</dim>
					<dim>128</dim>
					<dim>50</dim>
					<dim>64</dim>
				</port>
			</input>
			<output>
				<port id="2">
					<dim>1</dim>
					<dim>128</dim>
					<dim>50</dim>
					<dim>64</dim>
				</port>
			</output>
		</layer>
		<layer id="182" name="moments_9/SquaredDifference/squared_" precision="FP32" type="Power">
			<data power="2" scale="1" shift="0"/>
			<input>
				<port id="0">
					<dim>1</dim>
					<dim>128</dim>
					<dim>50</dim>
					<dim>64</dim>
				</port>
			</input>
			<output>
				<port id="1">
					<dim>1</dim>
					<dim>128</dim>
					<dim>50</dim>
					<dim>64</dim>
				</port>
			</output>
		</layer>
		<layer id="183" name="moments_9/variance" precision="FP32" type="Pooling">
			<data exclude-pad="true" kernel="50,64" pads_begin="0,0" pads_end="0,0" pool-method="avg" rounding-type="ceil" strides="1,1"/>
			<input>
				<port id="0">
					<dim>1</dim>
					<dim>128</dim>
					<dim>50</dim>
					<dim>64</dim>
				</port>
			</input>
			<output>
				<port id="1">
					<dim>1</dim>
					<dim>128</dim>
					<dim>1</dim>
					<dim>1</dim>
				</port>
			</output>
		</layer>
		<layer id="184" name="add_21" precision="FP32" type="Power">
			<data power="1" scale="1" shift="0.0010000000474974513"/>
			<input>
				<port id="0">
					<dim>1</dim>
					<dim>128</dim>
					<dim>1</dim>
					<dim>1</dim>
				</port>
			</input>
			<output>
				<port id="1">
					<dim>1</dim>
					<dim>128</dim>
					<dim>1</dim>
					<dim>1</dim>
				</port>
			</output>
		</layer>
		<layer id="185" name="Rsqrt_9" precision="FP32" type="Power">
			<data power="-0.5" scale="1" shift="0"/>
			<input>
				<port id="0">
					<dim>1</dim>
					<dim>128</dim>
					<dim>1</dim>
					<dim>1</dim>
				</port>
			</input>
			<output>
				<port id="1">
					<dim>1</dim>
					<dim>128</dim>
					<dim>1</dim>
					<dim>1</dim>
				</port>
			</output>
		</layer>
		<layer id="186" name="mul_18/Broadcast/" precision="FP32" type="Tile">
			<data axis="2" tiles="50"/>
			<input>
				<port id="0">
					<dim>1</dim>
					<dim>128</dim>
					<dim>1</dim>
					<dim>1</dim>
				</port>
			</input>
			<output>
				<port id="1">
					<dim>1</dim>
					<dim>128</dim>
					<dim>50</dim>
					<dim>1</dim>
				</port>
			</output>
		</layer>
		<layer id="187" name="mul_18/Broadcast/1196" precision="FP32" type="Tile">
			<data axis="3" tiles="64"/>
			<input>
				<port id="0">
					<dim>1</dim>
					<dim>128</dim>
					<dim>50</dim>
					<dim>1</dim>
				</port>
			</input>
			<output>
				<port id="1">
					<dim>1</dim>
					<dim>128</dim>
					<dim>50</dim>
					<dim>64</dim>
				</port>
			</output>
		</layer>
		<layer id="188" name="mul_18" precision="FP32" type="Eltwise">
			<data operation="mul"/>
			<input>
				<port id="0">
					<dim>1</dim>
					<dim>128</dim>
					<dim>50</dim>
					<dim>64</dim>
				</port>
				<port id="1">
					<dim>1</dim>
					<dim>128</dim>
					<dim>50</dim>
					<dim>64</dim>
				</port>
			</input>
			<output>
				<port id="2">
					<dim>1</dim>
					<dim>128</dim>
					<dim>50</dim>
					<dim>64</dim>
				</port>
			</output>
		</layer>
		<layer id="189" name="mul_19/FusedScaleShift_" precision="FP32" type="ScaleShift">
			<input>
				<port id="0">
					<dim>1</dim>
					<dim>128</dim>
					<dim>50</dim>
					<dim>64</dim>
				</port>
			</input>
			<output>
				<port id="3">
					<dim>1</dim>
					<dim>128</dim>
					<dim>50</dim>
					<dim>64</dim>
				</port>
			</output>
			<blobs>
				<weights offset="4536448" size="512"/>
				<biases offset="4536960" size="512"/>
			</blobs>
		</layer>
		<layer id="190" name="Relu_6" precision="FP32" type="ReLU">
			<input>
				<port id="0">
					<dim>1</dim>
					<dim>128</dim>
					<dim>50</dim>
					<dim>64</dim>
				</port>
			</input>
			<output>
				<port id="1">
					<dim>1</dim>
					<dim>128</dim>
					<dim>50</dim>
					<dim>64</dim>
				</port>
			</output>
		</layer>
		<layer id="191" name="Conv2D_10" precision="FP32" type="Convolution">
			<data auto_pad="same_upper" dilations="1,1" group="1" kernel="3,3" output="128" pads_begin="1,1" pads_end="1,1" strides="1,1"/>
			<input>
				<port id="0">
					<dim>1</dim>
					<dim>128</dim>
					<dim>50</dim>
					<dim>64</dim>
				</port>
			</input>
			<output>
				<port id="2">
					<dim>1</dim>
					<dim>128</dim>
					<dim>50</dim>
					<dim>64</dim>
				</port>
			</output>
			<blobs>
				<weights offset="4537472" size="589824"/>
			</blobs>
		</layer>
		<layer id="192" name="moments_10/mean" precision="FP32" type="Pooling">
			<data exclude-pad="true" kernel="50,64" pads_begin="0,0" pads_end="0,0" pool-method="avg" rounding-type="ceil" strides="1,1"/>
			<input>
				<port id="0">
					<dim>1</dim>
					<dim>128</dim>
					<dim>50</dim>
					<dim>64</dim>
				</port>
			</input>
			<output>
				<port id="1">
					<dim>1</dim>
					<dim>128</dim>
					<dim>1</dim>
					<dim>1</dim>
				</port>
			</output>
		</layer>
		<layer id="193" name="sub_10/negate_" precision="FP32" type="Power">
			<data power="1" scale="-1" shift="0"/>
			<input>
				<port id="0">
					<dim>1</dim>
					<dim>128</dim>
					<dim>1</dim>
					<dim>1</dim>
				</port>
			</input>
			<output>
				<port id="1">
					<dim>1</dim>
					<dim>128</dim>
					<dim>1</dim>
					<dim>1</dim>
				</port>
			</output>
		</layer>
		<layer id="194" name="sub_10/add_/Broadcast/" precision="FP32" type="Tile">
			<data axis="2" tiles="50"/>
			<input>
				<port id="0">
					<dim>1</dim>
					<dim>128</dim>
					<dim>1</dim>
					<dim>1</dim>
				</port>
			</input>
			<output>
				<port id="1">
					<dim>1</dim>
					<dim>128</dim>
					<dim>50</dim>
					<dim>1</dim>
				</port>
			</output>
		</layer>
		<layer id="195" name="sub_10/add_/Broadcast/1224" precision="FP32" type="Tile">
			<data axis="3" tiles="64"/>
			<input>
				<port id="0">
					<dim>1</dim>
					<dim>128</dim>
					<dim>50</dim>
					<dim>1</dim>
				</port>
			</input>
			<output>
				<port id="1">
					<dim>1</dim>
					<dim>128</dim>
					<dim>50</dim>
					<dim>64</dim>
				</port>
			</output>
		</layer>
		<layer id="196" name="sub_10/add_" precision="FP32" type="Eltwise">
			<data operation="sum"/>
			<input>
				<port id="0">
					<dim>1</dim>
					<dim>128</dim>
					<dim>50</dim>
					<dim>64</dim>
				</port>
				<port id="1">
					<dim>1</dim>
					<dim>128</dim>
					<dim>50</dim>
					<dim>64</dim>
				</port>
			</input>
			<output>
				<port id="2">
					<dim>1</dim>
					<dim>128</dim>
					<dim>50</dim>
					<dim>64</dim>
				</port>
			</output>
		</layer>
		<layer id="197" name="moments_10/SquaredDifference/negate_" precision="FP32" type="Power">
			<data power="1" scale="-1" shift="0"/>
			<input>
				<port id="0">
					<dim>1</dim>
					<dim>128</dim>
					<dim>1</dim>
					<dim>1</dim>
				</port>
			</input>
			<output>
				<port id="1">
					<dim>1</dim>
					<dim>128</dim>
					<dim>1</dim>
					<dim>1</dim>
				</port>
			</output>
		</layer>
		<layer id="198" name="moments_10/SquaredDifference/add_/Broadcast/" precision="FP32" type="Tile">
			<data axis="2" tiles="50"/>
			<input>
				<port id="0">
					<dim>1</dim>
					<dim>128</dim>
					<dim>1</dim>
					<dim>1</dim>
				</port>
			</input>
			<output>
				<port id="1">
					<dim>1</dim>
					<dim>128</dim>
					<dim>50</dim>
					<dim>1</dim>
				</port>
			</output>
		</layer>
		<layer id="199" name="moments_10/SquaredDifference/add_/Broadcast/1068" precision="FP32" type="Tile">
			<data axis="3" tiles="64"/>
			<input>
				<port id="0">
					<dim>1</dim>
					<dim>128</dim>
					<dim>50</dim>
					<dim>1</dim>
				</port>
			</input>
			<output>
				<port id="1">
					<dim>1</dim>
					<dim>128</dim>
					<dim>50</dim>
					<dim>64</dim>
				</port>
			</output>
		</layer>
		<layer id="200" name="moments_10/SquaredDifference/add_" precision="FP32" type="Eltwise">
			<data operation="sum"/>
			<input>
				<port id="0">
					<dim>1</dim>
					<dim>128</dim>
					<dim>50</dim>
					<dim>64</dim>
				</port>
				<port id="1">
					<dim>1</dim>
					<dim>128</dim>
					<dim>50</dim>
					<dim>64</dim>
				</port>
			</input>
			<output>
				<port id="2">
					<dim>1</dim>
					<dim>128</dim>
					<dim>50</dim>
					<dim>64</dim>
				</port>
			</output>
		</layer>
		<layer id="201" name="moments_10/SquaredDifference/squared_" precision="FP32" type="Power">
			<data power="2" scale="1" shift="0"/>
			<input>
				<port id="0">
					<dim>1</dim>
					<dim>128</dim>
					<dim>50</dim>
					<dim>64</dim>
				</port>
			</input>
			<output>
				<port id="1">
					<dim>1</dim>
					<dim>128</dim>
					<dim>50</dim>
					<dim>64</dim>
				</port>
			</output>
		</layer>
		<layer id="202" name="moments_10/variance" precision="FP32" type="Pooling">
			<data exclude-pad="true" kernel="50,64" pads_begin="0,0" pads_end="0,0" pool-method="avg" rounding-type="ceil" strides="1,1"/>
			<input>
				<port id="0">
					<dim>1</dim>
					<dim>128</dim>
					<dim>50</dim>
					<dim>64</dim>
				</port>
			</input>
			<output>
				<port id="1">
					<dim>1</dim>
					<dim>128</dim>
					<dim>1</dim>
					<dim>1</dim>
				</port>
			</output>
		</layer>
		<layer id="203" name="add_23" precision="FP32" type="Power">
			<data power="1" scale="1" shift="0.0010000000474974513"/>
			<input>
				<port id="0">
					<dim>1</dim>
					<dim>128</dim>
					<dim>1</dim>
					<dim>1</dim>
				</port>
			</input>
			<output>
				<port id="1">
					<dim>1</dim>
					<dim>128</dim>
					<dim>1</dim>
					<dim>1</dim>
				</port>
			</output>
		</layer>
		<layer id="204" name="Rsqrt_10" precision="FP32" type="Power">
			<data power="-0.5" scale="1" shift="0"/>
			<input>
				<port id="0">
					<dim>1</dim>
					<dim>128</dim>
					<dim>1</dim>
					<dim>1</dim>
				</port>
			</input>
			<output>
				<port id="1">
					<dim>1</dim>
					<dim>128</dim>
					<dim>1</dim>
					<dim>1</dim>
				</port>
			</output>
		</layer>
		<layer id="205" name="mul_20/Broadcast/" precision="FP32" type="Tile">
			<data axis="2" tiles="50"/>
			<input>
				<port id="0">
					<dim>1</dim>
					<dim>128</dim>
					<dim>1</dim>
					<dim>1</dim>
				</port>
			</input>
			<output>
				<port id="1">
					<dim>1</dim>
					<dim>128</dim>
					<dim>50</dim>
					<dim>1</dim>
				</port>
			</output>
		</layer>
		<layer id="206" name="mul_20/Broadcast/1080" precision="FP32" type="Tile">
			<data axis="3" tiles="64"/>
			<input>
				<port id="0">
					<dim>1</dim>
					<dim>128</dim>
					<dim>50</dim>
					<dim>1</dim>
				</port>
			</input>
			<output>
				<port id="1">
					<dim>1</dim>
					<dim>128</dim>
					<dim>50</dim>
					<dim>64</dim>
				</port>
			</output>
		</layer>
		<layer id="207" name="mul_20" precision="FP32" type="Eltwise">
			<data operation="mul"/>
			<input>
				<port id="0">
					<dim>1</dim>
					<dim>128</dim>
					<dim>50</dim>
					<dim>64</dim>
				</port>
				<port id="1">
					<dim>1</dim>
					<dim>128</dim>
					<dim>50</dim>
					<dim>64</dim>
				</port>
			</input>
			<output>
				<port id="2">
					<dim>1</dim>
					<dim>128</dim>
					<dim>50</dim>
					<dim>64</dim>
				</port>
			</output>
		</layer>
		<layer id="208" name="mul_21/FusedScaleShift_" precision="FP32" type="ScaleShift">
			<input>
				<port id="0">
					<dim>1</dim>
					<dim>128</dim>
					<dim>50</dim>
					<dim>64</dim>
				</port>
			</input>
			<output>
				<port id="3">
					<dim>1</dim>
					<dim>128</dim>
					<dim>50</dim>
					<dim>64</dim>
				</port>
			</output>
			<blobs>
				<weights offset="5127296" size="512"/>
				<biases offset="5127808" size="512"/>
			</blobs>
		</layer>
		<layer id="209" name="add_25" precision="FP32" type="Eltwise">
			<data operation="sum"/>
			<input>
				<port id="0">
					<dim>1</dim>
					<dim>128</dim>
					<dim>50</dim>
					<dim>64</dim>
				</port>
				<port id="1">
					<dim>1</dim>
					<dim>128</dim>
					<dim>50</dim>
					<dim>64</dim>
				</port>
			</input>
			<output>
				<port id="2">
					<dim>1</dim>
					<dim>128</dim>
					<dim>50</dim>
					<dim>64</dim>
				</port>
			</output>
		</layer>
		<layer id="210" name="Conv2D_11" precision="FP32" type="Convolution">
			<data auto_pad="same_upper" dilations="1,1" group="1" kernel="3,3" output="128" pads_begin="1,1" pads_end="1,1" strides="1,1"/>
			<input>
				<port id="0">
					<dim>1</dim>
					<dim>128</dim>
					<dim>50</dim>
					<dim>64</dim>
				</port>
			</input>
			<output>
				<port id="2">
					<dim>1</dim>
					<dim>128</dim>
					<dim>50</dim>
					<dim>64</dim>
				</port>
			</output>
			<blobs>
				<weights offset="5128320" size="589824"/>
			</blobs>
		</layer>
		<layer id="211" name="moments_11/mean" precision="FP32" type="Pooling">
			<data exclude-pad="true" kernel="50,64" pads_begin="0,0" pads_end="0,0" pool-method="avg" rounding-type="ceil" strides="1,1"/>
			<input>
				<port id="0">
					<dim>1</dim>
					<dim>128</dim>
					<dim>50</dim>
					<dim>64</dim>
				</port>
			</input>
			<output>
				<port id="1">
					<dim>1</dim>
					<dim>128</dim>
					<dim>1</dim>
					<dim>1</dim>
				</port>
			</output>
		</layer>
		<layer id="212" name="sub_11/negate_" precision="FP32" type="Power">
			<data power="1" scale="-1" shift="0"/>
			<input>
				<port id="0">
					<dim>1</dim>
					<dim>128</dim>
					<dim>1</dim>
					<dim>1</dim>
				</port>
			</input>
			<output>
				<port id="1">
					<dim>1</dim>
					<dim>128</dim>
					<dim>1</dim>
					<dim>1</dim>
				</port>
			</output>
		</layer>
		<layer id="213" name="sub_11/add_/Broadcast/" precision="FP32" type="Tile">
			<data axis="2" tiles="50"/>
			<input>
				<port id="0">
					<dim>1</dim>
					<dim>128</dim>
					<dim>1</dim>
					<dim>1</dim>
				</port>
			</input>
			<output>
				<port id="1">
					<dim>1</dim>
					<dim>128</dim>
					<dim>50</dim>
					<dim>1</dim>
				</port>
			</output>
		</layer>
		<layer id="214" name="sub_11/add_/Broadcast/1164" precision="FP32" type="Tile">
			<data axis="3" tiles="64"/>
			<input>
				<port id="0">
					<dim>1</dim>
					<dim>128</dim>
					<dim>50</dim>
					<dim>1</dim>
				</port>
			</input>
			<output>
				<port id="1">
					<dim>1</dim>
					<dim>128</dim>
					<dim>50</dim>
					<dim>64</dim>
				</port>
			</output>
		</layer>
		<layer id="215" name="sub_11/add_" precision="FP32" type="Eltwise">
			<data operation="sum"/>
			<input>
				<port id="0">
					<dim>1</dim>
					<dim>128</dim>
					<dim>50</dim>
					<dim>64</dim>
				</port>
				<port id="1">
					<dim>1</dim>
					<dim>128</dim>
					<dim>50</dim>
					<dim>64</dim>
				</port>
			</input>
			<output>
				<port id="2">
					<dim>1</dim>
					<dim>128</dim>
					<dim>50</dim>
					<dim>64</dim>
				</port>
			</output>
		</layer>
		<layer id="216" name="moments_11/SquaredDifference/negate_" precision="FP32" type="Power">
			<data power="1" scale="-1" shift="0"/>
			<input>
				<port id="0">
					<dim>1</dim>
					<dim>128</dim>
					<dim>1</dim>
					<dim>1</dim>
				</port>
			</input>
			<output>
				<port id="1">
					<dim>1</dim>
					<dim>128</dim>
					<dim>1</dim>
					<dim>1</dim>
				</port>
			</output>
		</layer>
		<layer id="217" name="moments_11/SquaredDifference/add_/Broadcast/" precision="FP32" type="Tile">
			<data axis="2" tiles="50"/>
			<input>
				<port id="0">
					<dim>1</dim>
					<dim>128</dim>
					<dim>1</dim>
					<dim>1</dim>
				</port>
			</input>
			<output>
				<port id="1">
					<dim>1</dim>
					<dim>128</dim>
					<dim>50</dim>
					<dim>1</dim>
				</port>
			</output>
		</layer>
		<layer id="218" name="moments_11/SquaredDifference/add_/Broadcast/1148" precision="FP32" type="Tile">
			<data axis="3" tiles="64"/>
			<input>
				<port id="0">
					<dim>1</dim>
					<dim>128</dim>
					<dim>50</dim>
					<dim>1</dim>
				</port>
			</input>
			<output>
				<port id="1">
					<dim>1</dim>
					<dim>128</dim>
					<dim>50</dim>
					<dim>64</dim>
				</port>
			</output>
		</layer>
		<layer id="219" name="moments_11/SquaredDifference/add_" precision="FP32" type="Eltwise">
			<data operation="sum"/>
			<input>
				<port id="0">
					<dim>1</dim>
					<dim>128</dim>
					<dim>50</dim>
					<dim>64</dim>
				</port>
				<port id="1">
					<dim>1</dim>
					<dim>128</dim>
					<dim>50</dim>
					<dim>64</dim>
				</port>
			</input>
			<output>
				<port id="2">
					<dim>1</dim>
					<dim>128</dim>
					<dim>50</dim>
					<dim>64</dim>
				</port>
			</output>
		</layer>
		<layer id="220" name="moments_11/SquaredDifference/squared_" precision="FP32" type="Power">
			<data power="2" scale="1" shift="0"/>
			<input>
				<port id="0">
					<dim>1</dim>
					<dim>128</dim>
					<dim>50</dim>
					<dim>64</dim>
				</port>
			</input>
			<output>
				<port id="1">
					<dim>1</dim>
					<dim>128</dim>
					<dim>50</dim>
					<dim>64</dim>
				</port>
			</output>
		</layer>
		<layer id="221" name="moments_11/variance" precision="FP32" type="Pooling">
			<data exclude-pad="true" kernel="50,64" pads_begin="0,0" pads_end="0,0" pool-method="avg" rounding-type="ceil" strides="1,1"/>
			<input>
				<port id="0">
					<dim>1</dim>
					<dim>128</dim>
					<dim>50</dim>
					<dim>64</dim>
				</port>
			</input>
			<output>
				<port id="1">
					<dim>1</dim>
					<dim>128</dim>
					<dim>1</dim>
					<dim>1</dim>
				</port>
			</output>
		</layer>
		<layer id="222" name="add_26" precision="FP32" type="Power">
			<data power="1" scale="1" shift="0.0010000000474974513"/>
			<input>
				<port id="0">
					<dim>1</dim>
					<dim>128</dim>
					<dim>1</dim>
					<dim>1</dim>
				</port>
			</input>
			<output>
				<port id="1">
					<dim>1</dim>
					<dim>128</dim>
					<dim>1</dim>
					<dim>1</dim>
				</port>
			</output>
		</layer>
		<layer id="223" name="Rsqrt_11" precision="FP32" type="Power">
			<data power="-0.5" scale="1" shift="0"/>
			<input>
				<port id="0">
					<dim>1</dim>
					<dim>128</dim>
					<dim>1</dim>
					<dim>1</dim>
				</port>
			</input>
			<output>
				<port id="1">
					<dim>1</dim>
					<dim>128</dim>
					<dim>1</dim>
					<dim>1</dim>
				</port>
			</output>
		</layer>
		<layer id="224" name="mul_22/Broadcast/" precision="FP32" type="Tile">
			<data axis="2" tiles="50"/>
			<input>
				<port id="0">
					<dim>1</dim>
					<dim>128</dim>
					<dim>1</dim>
					<dim>1</dim>
				</port>
			</input>
			<output>
				<port id="1">
					<dim>1</dim>
					<dim>128</dim>
					<dim>50</dim>
					<dim>1</dim>
				</port>
			</output>
		</layer>
		<layer id="225" name="mul_22/Broadcast/1108" precision="FP32" type="Tile">
			<data axis="3" tiles="64"/>
			<input>
				<port id="0">
					<dim>1</dim>
					<dim>128</dim>
					<dim>50</dim>
					<dim>1</dim>
				</port>
			</input>
			<output>
				<port id="1">
					<dim>1</dim>
					<dim>128</dim>
					<dim>50</dim>
					<dim>64</dim>
				</port>
			</output>
		</layer>
		<layer id="226" name="mul_22" precision="FP32" type="Eltwise">
			<data operation="mul"/>
			<input>
				<port id="0">
					<dim>1</dim>
					<dim>128</dim>
					<dim>50</dim>
					<dim>64</dim>
				</port>
				<port id="1">
					<dim>1</dim>
					<dim>128</dim>
					<dim>50</dim>
					<dim>64</dim>
				</port>
			</input>
			<output>
				<port id="2">
					<dim>1</dim>
					<dim>128</dim>
					<dim>50</dim>
					<dim>64</dim>
				</port>
			</output>
		</layer>
		<layer id="227" name="mul_23/FusedScaleShift_" precision="FP32" type="ScaleShift">
			<input>
				<port id="0">
					<dim>1</dim>
					<dim>128</dim>
					<dim>50</dim>
					<dim>64</dim>
				</port>
			</input>
			<output>
				<port id="3">
					<dim>1</dim>
					<dim>128</dim>
					<dim>50</dim>
					<dim>64</dim>
				</port>
			</output>
			<blobs>
				<weights offset="5718144" size="512"/>
				<biases offset="5718656" size="512"/>
			</blobs>
		</layer>
		<layer id="228" name="Relu_7" precision="FP32" type="ReLU">
			<input>
				<port id="0">
					<dim>1</dim>
					<dim>128</dim>
					<dim>50</dim>
					<dim>64</dim>
				</port>
			</input>
			<output>
				<port id="1">
					<dim>1</dim>
					<dim>128</dim>
					<dim>50</dim>
					<dim>64</dim>
				</port>
			</output>
		</layer>
		<layer id="229" name="Conv2D_12" precision="FP32" type="Convolution">
			<data auto_pad="same_upper" dilations="1,1" group="1" kernel="3,3" output="128" pads_begin="1,1" pads_end="1,1" strides="1,1"/>
			<input>
				<port id="0">
					<dim>1</dim>
					<dim>128</dim>
					<dim>50</dim>
					<dim>64</dim>
				</port>
			</input>
			<output>
				<port id="2">
					<dim>1</dim>
					<dim>128</dim>
					<dim>50</dim>
					<dim>64</dim>
				</port>
			</output>
			<blobs>
				<weights offset="5719168" size="589824"/>
			</blobs>
		</layer>
		<layer id="230" name="moments_12/mean" precision="FP32" type="Pooling">
			<data exclude-pad="true" kernel="50,64" pads_begin="0,0" pads_end="0,0" pool-method="avg" rounding-type="ceil" strides="1,1"/>
			<input>
				<port id="0">
					<dim>1</dim>
					<dim>128</dim>
					<dim>50</dim>
					<dim>64</dim>
				</port>
			</input>
			<output>
				<port id="1">
					<dim>1</dim>
					<dim>128</dim>
					<dim>1</dim>
					<dim>1</dim>
				</port>
			</output>
		</layer>
		<layer id="231" name="sub_12/negate_" precision="FP32" type="Power">
			<data power="1" scale="-1" shift="0"/>
			<input>
				<port id="0">
					<dim>1</dim>
					<dim>128</dim>
					<dim>1</dim>
					<dim>1</dim>
				</port>
			</input>
			<output>
				<port id="1">
					<dim>1</dim>
					<dim>128</dim>
					<dim>1</dim>
					<dim>1</dim>
				</port>
			</output>
		</layer>
		<layer id="232" name="sub_12/add_/Broadcast/" precision="FP32" type="Tile">
			<data axis="2" tiles="50"/>
			<input>
				<port id="0">
					<dim>1</dim>
					<dim>128</dim>
					<dim>1</dim>
					<dim>1</dim>
				</port>
			</input>
			<output>
				<port id="1">
					<dim>1</dim>
					<dim>128</dim>
					<dim>50</dim>
					<dim>1</dim>
				</port>
			</output>
		</layer>
		<layer id="233" name="sub_12/add_/Broadcast/1072" precision="FP32" type="Tile">
			<data axis="3" tiles="64"/>
			<input>
				<port id="0">
					<dim>1</dim>
					<dim>128</dim>
					<dim>50</dim>
					<dim>1</dim>
				</port>
			</input>
			<output>
				<port id="1">
					<dim>1</dim>
					<dim>128</dim>
					<dim>50</dim>
					<dim>64</dim>
				</port>
			</output>
		</layer>
		<layer id="234" name="sub_12/add_" precision="FP32" type="Eltwise">
			<data operation="sum"/>
			<input>
				<port id="0">
					<dim>1</dim>
					<dim>128</dim>
					<dim>50</dim>
					<dim>64</dim>
				</port>
				<port id="1">
					<dim>1</dim>
					<dim>128</dim>
					<dim>50</dim>
					<dim>64</dim>
				</port>
			</input>
			<output>
				<port id="2">
					<dim>1</dim>
					<dim>128</dim>
					<dim>50</dim>
					<dim>64</dim>
				</port>
			</output>
		</layer>
		<layer id="235" name="moments_12/SquaredDifference/negate_" precision="FP32" type="Power">
			<data power="1" scale="-1" shift="0"/>
			<input>
				<port id="0">
					<dim>1</dim>
					<dim>128</dim>
					<dim>1</dim>
					<dim>1</dim>
				</port>
			</input>
			<output>
				<port id="1">
					<dim>1</dim>
					<dim>128</dim>
					<dim>1</dim>
					<dim>1</dim>
				</port>
			</output>
		</layer>
		<layer id="236" name="moments_12/SquaredDifference/add_/Broadcast/" precision="FP32" type="Tile">
			<data axis="2" tiles="50"/>
			<input>
				<port id="0">
					<dim>1</dim>
					<dim>128</dim>
					<dim>1</dim>
					<dim>1</dim>
				</port>
			</input>
			<output>
				<port id="1">
					<dim>1</dim>
					<dim>128</dim>
					<dim>50</dim>
					<dim>1</dim>
				</port>
			</output>
		</layer>
		<layer id="237" name="moments_12/SquaredDifference/add_/Broadcast/1104" precision="FP32" type="Tile">
			<data axis="3" tiles="64"/>
			<input>
				<port id="0">
					<dim>1</dim>
					<dim>128</dim>
					<dim>50</dim>
					<dim>1</dim>
				</port>
			</input>
			<output>
				<port id="1">
					<dim>1</dim>
					<dim>128</dim>
					<dim>50</dim>
					<dim>64</dim>
				</port>
			</output>
		</layer>
		<layer id="238" name="moments_12/SquaredDifference/add_" precision="FP32" type="Eltwise">
			<data operation="sum"/>
			<input>
				<port id="0">
					<dim>1</dim>
					<dim>128</dim>
					<dim>50</dim>
					<dim>64</dim>
				</port>
				<port id="1">
					<dim>1</dim>
					<dim>128</dim>
					<dim>50</dim>
					<dim>64</dim>
				</port>
			</input>
			<output>
				<port id="2">
					<dim>1</dim>
					<dim>128</dim>
					<dim>50</dim>
					<dim>64</dim>
				</port>
			</output>
		</layer>
		<layer id="239" name="moments_12/SquaredDifference/squared_" precision="FP32" type="Power">
			<data power="2" scale="1" shift="0"/>
			<input>
				<port id="0">
					<dim>1</dim>
					<dim>128</dim>
					<dim>50</dim>
					<dim>64</dim>
				</port>
			</input>
			<output>
				<port id="1">
					<dim>1</dim>
					<dim>128</dim>
					<dim>50</dim>
					<dim>64</dim>
				</port>
			</output>
		</layer>
		<layer id="240" name="moments_12/variance" precision="FP32" type="Pooling">
			<data exclude-pad="true" kernel="50,64" pads_begin="0,0" pads_end="0,0" pool-method="avg" rounding-type="ceil" strides="1,1"/>
			<input>
				<port id="0">
					<dim>1</dim>
					<dim>128</dim>
					<dim>50</dim>
					<dim>64</dim>
				</port>
			</input>
			<output>
				<port id="1">
					<dim>1</dim>
					<dim>128</dim>
					<dim>1</dim>
					<dim>1</dim>
				</port>
			</output>
		</layer>
		<layer id="241" name="add_28" precision="FP32" type="Power">
			<data power="1" scale="1" shift="0.0010000000474974513"/>
			<input>
				<port id="0">
					<dim>1</dim>
					<dim>128</dim>
					<dim>1</dim>
					<dim>1</dim>
				</port>
			</input>
			<output>
				<port id="1">
					<dim>1</dim>
					<dim>128</dim>
					<dim>1</dim>
					<dim>1</dim>
				</port>
			</output>
		</layer>
		<layer id="242" name="Rsqrt_12" precision="FP32" type="Power">
			<data power="-0.5" scale="1" shift="0"/>
			<input>
				<port id="0">
					<dim>1</dim>
					<dim>128</dim>
					<dim>1</dim>
					<dim>1</dim>
				</port>
			</input>
			<output>
				<port id="1">
					<dim>1</dim>
					<dim>128</dim>
					<dim>1</dim>
					<dim>1</dim>
				</port>
			</output>
		</layer>
		<layer id="243" name="mul_24/Broadcast/" precision="FP32" type="Tile">
			<data axis="2" tiles="50"/>
			<input>
				<port id="0">
					<dim>1</dim>
					<dim>128</dim>
					<dim>1</dim>
					<dim>1</dim>
				</port>
			</input>
			<output>
				<port id="1">
					<dim>1</dim>
					<dim>128</dim>
					<dim>50</dim>
					<dim>1</dim>
				</port>
			</output>
		</layer>
		<layer id="244" name="mul_24/Broadcast/1180" precision="FP32" type="Tile">
			<data axis="3" tiles="64"/>
			<input>
				<port id="0">
					<dim>1</dim>
					<dim>128</dim>
					<dim>50</dim>
					<dim>1</dim>
				</port>
			</input>
			<output>
				<port id="1">
					<dim>1</dim>
					<dim>128</dim>
					<dim>50</dim>
					<dim>64</dim>
				</port>
			</output>
		</layer>
		<layer id="245" name="mul_24" precision="FP32" type="Eltwise">
			<data operation="mul"/>
			<input>
				<port id="0">
					<dim>1</dim>
					<dim>128</dim>
					<dim>50</dim>
					<dim>64</dim>
				</port>
				<port id="1">
					<dim>1</dim>
					<dim>128</dim>
					<dim>50</dim>
					<dim>64</dim>
				</port>
			</input>
			<output>
				<port id="2">
					<dim>1</dim>
					<dim>128</dim>
					<dim>50</dim>
					<dim>64</dim>
				</port>
			</output>
		</layer>
		<layer id="246" name="mul_25/FusedScaleShift_" precision="FP32" type="ScaleShift">
			<input>
				<port id="0">
					<dim>1</dim>
					<dim>128</dim>
					<dim>50</dim>
					<dim>64</dim>
				</port>
			</input>
			<output>
				<port id="3">
					<dim>1</dim>
					<dim>128</dim>
					<dim>50</dim>
					<dim>64</dim>
				</port>
			</output>
			<blobs>
				<weights offset="6308992" size="512"/>
				<biases offset="6309504" size="512"/>
			</blobs>
		</layer>
		<layer id="247" name="add_30" precision="FP32" type="Eltwise">
			<data operation="sum"/>
			<input>
				<port id="0">
					<dim>1</dim>
					<dim>128</dim>
					<dim>50</dim>
					<dim>64</dim>
				</port>
				<port id="1">
					<dim>1</dim>
					<dim>128</dim>
					<dim>50</dim>
					<dim>64</dim>
				</port>
			</input>
			<output>
				<port id="2">
					<dim>1</dim>
					<dim>128</dim>
					<dim>50</dim>
					<dim>64</dim>
				</port>
			</output>
		</layer>
		<layer id="248" name="conv2d_transpose" precision="FP32" type="Deconvolution">
			<data auto_pad="same_upper" kernel="3,3" output="64" pads_begin="0,0" pads_end="1,1" strides="2,2"/>
			<input>
				<port id="0">
					<dim>1</dim>
					<dim>128</dim>
					<dim>50</dim>
					<dim>64</dim>
				</port>
			</input>
			<output>
				<port id="2">
					<dim>1</dim>
					<dim>64</dim>
					<dim>100</dim>
					<dim>128</dim>
				</port>
			</output>
			<blobs>
				<weights offset="6310016" size="294912"/>
			</blobs>
		</layer>
		<layer id="249" name="moments_13/mean" precision="FP32" type="Pooling">
			<data exclude-pad="true" kernel="100,128" pads_begin="0,0" pads_end="0,0" pool-method="avg" rounding-type="ceil" strides="1,1"/>
			<input>
				<port id="0">
					<dim>1</dim>
					<dim>64</dim>
					<dim>100</dim>
					<dim>128</dim>
				</port>
			</input>
			<output>
				<port id="1">
					<dim>1</dim>
					<dim>64</dim>
					<dim>1</dim>
					<dim>1</dim>
				</port>
			</output>
		</layer>
		<layer id="250" name="sub_13/negate_" precision="FP32" type="Power">
			<data power="1" scale="-1" shift="0"/>
			<input>
				<port id="0">
					<dim>1</dim>
					<dim>64</dim>
					<dim>1</dim>
					<dim>1</dim>
				</port>
			</input>
			<output>
				<port id="1">
					<dim>1</dim>
					<dim>64</dim>
					<dim>1</dim>
					<dim>1</dim>
				</port>
			</output>
		</layer>
		<layer id="251" name="sub_13/add_/Broadcast/" precision="FP32" type="Tile">
			<data axis="2" tiles="100"/>
			<input>
				<port id="0">
					<dim>1</dim>
					<dim>64</dim>
					<dim>1</dim>
					<dim>1</dim>
				</port>
			</input>
			<output>
				<port id="1">
					<dim>1</dim>
					<dim>64</dim>
					<dim>100</dim>
					<dim>1</dim>
				</port>
			</output>
		</layer>
		<layer id="252" name="sub_13/add_/Broadcast/1156" precision="FP32" type="Tile">
			<data axis="3" tiles="128"/>
			<input>
				<port id="0">
					<dim>1</dim>
					<dim>64</dim>
					<dim>100</dim>
					<dim>1</dim>
				</port>
			</input>
			<output>
				<port id="1">
					<dim>1</dim>
					<dim>64</dim>
					<dim>100</dim>
					<dim>128</dim>
				</port>
			</output>
		</layer>
		<layer id="253" name="sub_13/add_" precision="FP32" type="Eltwise">
			<data operation="sum"/>
			<input>
				<port id="0">
					<dim>1</dim>
					<dim>64</dim>
					<dim>100</dim>
					<dim>128</dim>
				</port>
				<port id="1">
					<dim>1</dim>
					<dim>64</dim>
					<dim>100</dim>
					<dim>128</dim>
				</port>
			</input>
			<output>
				<port id="2">
					<dim>1</dim>
					<dim>64</dim>
					<dim>100</dim>
					<dim>128</dim>
				</port>
			</output>
		</layer>
		<layer id="254" name="moments_13/SquaredDifference/negate_" precision="FP32" type="Power">
			<data power="1" scale="-1" shift="0"/>
			<input>
				<port id="0">
					<dim>1</dim>
					<dim>64</dim>
					<dim>1</dim>
					<dim>1</dim>
				</port>
			</input>
			<output>
				<port id="1">
					<dim>1</dim>
					<dim>64</dim>
					<dim>1</dim>
					<dim>1</dim>
				</port>
			</output>
		</layer>
		<layer id="255" name="moments_13/SquaredDifference/add_/Broadcast/" precision="FP32" type="Tile">
			<data axis="2" tiles="100"/>
			<input>
				<port id="0">
					<dim>1</dim>
					<dim>64</dim>
					<dim>1</dim>
					<dim>1</dim>
				</port>
			</input>
			<output>
				<port id="1">
					<dim>1</dim>
					<dim>64</dim>
					<dim>100</dim>
					<dim>1</dim>
				</port>
			</output>
		</layer>
		<layer id="256" name="moments_13/SquaredDifference/add_/Broadcast/1088" precision="FP32" type="Tile">
			<data axis="3" tiles="128"/>
			<input>
				<port id="0">
					<dim>1</dim>
					<dim>64</dim>
					<dim>100</dim>
					<dim>1</dim>
				</port>
			</input>
			<output>
				<port id="1">
					<dim>1</dim>
					<dim>64</dim>
					<dim>100</dim>
					<dim>128</dim>
				</port>
			</output>
		</layer>
		<layer id="257" name="moments_13/SquaredDifference/add_" precision="FP32" type="Eltwise">
			<data operation="sum"/>
			<input>
				<port id="0">
					<dim>1</dim>
					<dim>64</dim>
					<dim>100</dim>
					<dim>128</dim>
				</port>
				<port id="1">
					<dim>1</dim>
					<dim>64</dim>
					<dim>100</dim>
					<dim>128</dim>
				</port>
			</input>
			<output>
				<port id="2">
					<dim>1</dim>
					<dim>64</dim>
					<dim>100</dim>
					<dim>128</dim>
				</port>
			</output>
		</layer>
		<layer id="258" name="moments_13/SquaredDifference/squared_" precision="FP32" type="Power">
			<data power="2" scale="1" shift="0"/>
			<input>
				<port id="0">
					<dim>1</dim>
					<dim>64</dim>
					<dim>100</dim>
					<dim>128</dim>
				</port>
			</input>
			<output>
				<port id="1">
					<dim>1</dim>
					<dim>64</dim>
					<dim>100</dim>
					<dim>128</dim>
				</port>
			</output>
		</layer>
		<layer id="259" name="moments_13/variance" precision="FP32" type="Pooling">
			<data exclude-pad="true" kernel="100,128" pads_begin="0,0" pads_end="0,0" pool-method="avg" rounding-type="ceil" strides="1,1"/>
			<input>
				<port id="0">
					<dim>1</dim>
					<dim>64</dim>
					<dim>100</dim>
					<dim>128</dim>
				</port>
			</input>
			<output>
				<port id="1">
					<dim>1</dim>
					<dim>64</dim>
					<dim>1</dim>
					<dim>1</dim>
				</port>
			</output>
		</layer>
		<layer id="260" name="add_31" precision="FP32" type="Power">
			<data power="1" scale="1" shift="0.0010000000474974513"/>
			<input>
				<port id="0">
					<dim>1</dim>
					<dim>64</dim>
					<dim>1</dim>
					<dim>1</dim>
				</port>
			</input>
			<output>
				<port id="1">
					<dim>1</dim>
					<dim>64</dim>
					<dim>1</dim>
					<dim>1</dim>
				</port>
			</output>
		</layer>
		<layer id="261" name="Rsqrt_13" precision="FP32" type="Power">
			<data power="-0.5" scale="1" shift="0"/>
			<input>
				<port id="0">
					<dim>1</dim>
					<dim>64</dim>
					<dim>1</dim>
					<dim>1</dim>
				</port>
			</input>
			<output>
				<port id="1">
					<dim>1</dim>
					<dim>64</dim>
					<dim>1</dim>
					<dim>1</dim>
				</port>
			</output>
		</layer>
		<layer id="262" name="mul_26/Broadcast/" precision="FP32" type="Tile">
			<data axis="2" tiles="100"/>
			<input>
				<port id="0">
					<dim>1</dim>
					<dim>64</dim>
					<dim>1</dim>
					<dim>1</dim>
				</port>
			</input>
			<output>
				<port id="1">
					<dim>1</dim>
					<dim>64</dim>
					<dim>100</dim>
					<dim>1</dim>
				</port>
			</output>
		</layer>
		<layer id="263" name="mul_26/Broadcast/1160" precision="FP32" type="Tile">
			<data axis="3" tiles="128"/>
			<input>
				<port id="0">
					<dim>1</dim>
					<dim>64</dim>
					<dim>100</dim>
					<dim>1</dim>
				</port>
			</input>
			<output>
				<port id="1">
					<dim>1</dim>
					<dim>64</dim>
					<dim>100</dim>
					<dim>128</dim>
				</port>
			</output>
		</layer>
		<layer id="264" name="mul_26" precision="FP32" type="Eltwise">
			<data operation="mul"/>
			<input>
				<port id="0">
					<dim>1</dim>
					<dim>64</dim>
					<dim>100</dim>
					<dim>128</dim>
				</port>
				<port id="1">
					<dim>1</dim>
					<dim>64</dim>
					<dim>100</dim>
					<dim>128</dim>
				</port>
			</input>
			<output>
				<port id="2">
					<dim>1</dim>
					<dim>64</dim>
					<dim>100</dim>
					<dim>128</dim>
				</port>
			</output>
		</layer>
		<layer id="265" name="mul_27/FusedScaleShift_" precision="FP32" type="ScaleShift">
			<input>
				<port id="0">
					<dim>1</dim>
					<dim>64</dim>
					<dim>100</dim>
					<dim>128</dim>
				</port>
			</input>
			<output>
				<port id="3">
					<dim>1</dim>
					<dim>64</dim>
					<dim>100</dim>
					<dim>128</dim>
				</port>
			</output>
			<blobs>
				<weights offset="6604928" size="256"/>
				<biases offset="6605184" size="256"/>
			</blobs>
		</layer>
		<layer id="266" name="Relu_8" precision="FP32" type="ReLU">
			<input>
				<port id="0">
					<dim>1</dim>
					<dim>64</dim>
					<dim>100</dim>
					<dim>128</dim>
				</port>
			</input>
			<output>
				<port id="1">
					<dim>1</dim>
					<dim>64</dim>
					<dim>100</dim>
					<dim>128</dim>
				</port>
			</output>
		</layer>
		<layer id="267" name="conv2d_transpose_1" precision="FP32" type="Deconvolution">
			<data auto_pad="same_upper" kernel="3,3" output="32" pads_begin="0,0" pads_end="1,1" strides="2,2"/>
			<input>
				<port id="0">
					<dim>1</dim>
					<dim>64</dim>
					<dim>100</dim>
					<dim>128</dim>
				</port>
			</input>
			<output>
				<port id="2">
					<dim>1</dim>
					<dim>32</dim>
					<dim>200</dim>
					<dim>256</dim>
				</port>
			</output>
			<blobs>
				<weights offset="6605440" size="73728"/>
			</blobs>
		</layer>
		<layer id="268" name="moments_14/mean" precision="FP32" type="Pooling">
			<data exclude-pad="true" kernel="200,256" pads_begin="0,0" pads_end="0,0" pool-method="avg" rounding-type="ceil" strides="1,1"/>
			<input>
				<port id="0">
					<dim>1</dim>
					<dim>32</dim>
					<dim>200</dim>
					<dim>256</dim>
				</port>
			</input>
			<output>
				<port id="1">
					<dim>1</dim>
					<dim>32</dim>
					<dim>1</dim>
					<dim>1</dim>
				</port>
			</output>
		</layer>
		<layer id="269" name="sub_14/negate_" precision="FP32" type="Power">
			<data power="1" scale="-1" shift="0"/>
			<input>
				<port id="0">
					<dim>1</dim>
					<dim>32</dim>
					<dim>1</dim>
					<dim>1</dim>
				</port>
			</input>
			<output>
				<port id="1">
					<dim>1</dim>
					<dim>32</dim>
					<dim>1</dim>
					<dim>1</dim>
				</port>
			</output>
		</layer>
		<layer id="270" name="sub_14/add_/Broadcast/" precision="FP32" type="Tile">
			<data axis="2" tiles="200"/>
			<input>
				<port id="0">
					<dim>1</dim>
					<dim>32</dim>
					<dim>1</dim>
					<dim>1</dim>
				</port>
			</input>
			<output>
				<port id="1">
					<dim>1</dim>
					<dim>32</dim>
					<dim>200</dim>
					<dim>1</dim>
				</port>
			</output>
		</layer>
		<layer id="271" name="sub_14/add_/Broadcast/1092" precision="FP32" type="Tile">
			<data axis="3" tiles="256"/>
			<input>
				<port id="0">
					<dim>1</dim>
					<dim>32</dim>
					<dim>200</dim>
					<dim>1</dim>
				</port>
			</input>
			<output>
				<port id="1">
					<dim>1</dim>
					<dim>32</dim>
					<dim>200</dim>
					<dim>256</dim>
				</port>
			</output>
		</layer>
		<layer id="272" name="sub_14/add_" precision="FP32" type="Eltwise">
			<data operation="sum"/>
			<input>
				<port id="0">
					<dim>1</dim>
					<dim>32</dim>
					<dim>200</dim>
					<dim>256</dim>
				</port>
				<port id="1">
					<dim>1</dim>
					<dim>32</dim>
					<dim>200</dim>
					<dim>256</dim>
				</port>
			</input>
			<output>
				<port id="2">
					<dim>1</dim>
					<dim>32</dim>
					<dim>200</dim>
					<dim>256</dim>
				</port>
			</output>
		</layer>
		<layer id="273" name="moments_14/SquaredDifference/negate_" precision="FP32" type="Power">
			<data power="1" scale="-1" shift="0"/>
			<input>
				<port id="0">
					<dim>1</dim>
					<dim>32</dim>
					<dim>1</dim>
					<dim>1</dim>
				</port>
			</input>
			<output>
				<port id="1">
					<dim>1</dim>
					<dim>32</dim>
					<dim>1</dim>
					<dim>1</dim>
				</port>
			</output>
		</layer>
		<layer id="274" name="moments_14/SquaredDifference/add_/Broadcast/" precision="FP32" type="Tile">
			<data axis="2" tiles="200"/>
			<input>
				<port id="0">
					<dim>1</dim>
					<dim>32</dim>
					<dim>1</dim>
					<dim>1</dim>
				</port>
			</input>
			<output>
				<port id="1">
					<dim>1</dim>
					<dim>32</dim>
					<dim>200</dim>
					<dim>1</dim>
				</port>
			</output>
		</layer>
		<layer id="275" name="moments_14/SquaredDifference/add_/Broadcast/1208" precision="FP32" type="Tile">
			<data axis="3" tiles="256"/>
			<input>
				<port id="0">
					<dim>1</dim>
					<dim>32</dim>
					<dim>200</dim>
					<dim>1</dim>
				</port>
			</input>
			<output>
				<port id="1">
					<dim>1</dim>
					<dim>32</dim>
					<dim>200</dim>
					<dim>256</dim>
				</port>
			</output>
		</layer>
		<layer id="276" name="moments_14/SquaredDifference/add_" precision="FP32" type="Eltwise">
			<data operation="sum"/>
			<input>
				<port id="0">
					<dim>1</dim>
					<dim>32</dim>
					<dim>200</dim>
					<dim>256</dim>
				</port>
				<port id="1">
					<dim>1</dim>
					<dim>32</dim>
					<dim>200</dim>
					<dim>256</dim>
				</port>
			</input>
			<output>
				<port id="2">
					<dim>1</dim>
					<dim>32</dim>
					<dim>200</dim>
					<dim>256</dim>
				</port>
			</output>
		</layer>
		<layer id="277" name="moments_14/SquaredDifference/squared_" precision="FP32" type="Power">
			<data power="2" scale="1" shift="0"/>
			<input>
				<port id="0">
					<dim>1</dim>
					<dim>32</dim>
					<dim>200</dim>
					<dim>256</dim>
				</port>
			</input>
			<output>
				<port id="1">
					<dim>1</dim>
					<dim>32</dim>
					<dim>200</dim>
					<dim>256</dim>
				</port>
			</output>
		</layer>
		<layer id="278" name="moments_14/variance" precision="FP32" type="Pooling">
			<data exclude-pad="true" kernel="200,256" pads_begin="0,0" pads_end="0,0" pool-method="avg" rounding-type="ceil" strides="1,1"/>
			<input>
				<port id="0">
					<dim>1</dim>
					<dim>32</dim>
					<dim>200</dim>
					<dim>256</dim>
				</port>
			</input>
			<output>
				<port id="1">
					<dim>1</dim>
					<dim>32</dim>
					<dim>1</dim>
					<dim>1</dim>
				</port>
			</output>
		</layer>
		<layer id="279" name="add_33" precision="FP32" type="Power">
			<data power="1" scale="1" shift="0.0010000000474974513"/>
			<input>
				<port id="0">
					<dim>1</dim>
					<dim>32</dim>
					<dim>1</dim>
					<dim>1</dim>
				</port>
			</input>
			<output>
				<port id="1">
					<dim>1</dim>
					<dim>32</dim>
					<dim>1</dim>
					<dim>1</dim>
				</port>
			</output>
		</layer>
		<layer id="280" name="Rsqrt_14" precision="FP32" type="Power">
			<data power="-0.5" scale="1" shift="0"/>
			<input>
				<port id="0">
					<dim>1</dim>
					<dim>32</dim>
					<dim>1</dim>
					<dim>1</dim>
				</port>
			</input>
			<output>
				<port id="1">
					<dim>1</dim>
					<dim>32</dim>
					<dim>1</dim>
					<dim>1</dim>
				</port>
			</output>
		</layer>
		<layer id="281" name="mul_28/Broadcast/" precision="FP32" type="Tile">
			<data axis="2" tiles="200"/>
			<input>
				<port id="0">
					<dim>1</dim>
					<dim>32</dim>
					<dim>1</dim>
					<dim>1</dim>
				</port>
			</input>
			<output>
				<port id="1">
					<dim>1</dim>
					<dim>32</dim>
					<dim>200</dim>
					<dim>1</dim>
				</port>
			</output>
		</layer>
		<layer id="282" name="mul_28/Broadcast/1228" precision="FP32" type="Tile">
			<data axis="3" tiles="256"/>
			<input>
				<port id="0">
					<dim>1</dim>
					<dim>32</dim>
					<dim>200</dim>
					<dim>1</dim>
				</port>
			</input>
			<output>
				<port id="1">
					<dim>1</dim>
					<dim>32</dim>
					<dim>200</dim>
					<dim>256</dim>
				</port>
			</output>
		</layer>
		<layer id="283" name="mul_28" precision="FP32" type="Eltwise">
			<data operation="mul"/>
			<input>
				<port id="0">
					<dim>1</dim>
					<dim>32</dim>
					<dim>200</dim>
					<dim>256</dim>
				</port>
				<port id="1">
					<dim>1</dim>
					<dim>32</dim>
					<dim>200</dim>
					<dim>256</dim>
				</port>
			</input>
			<output>
				<port id="2">
					<dim>1</dim>
					<dim>32</dim>
					<dim>200</dim>
					<dim>256</dim>
				</port>
			</output>
		</layer>
		<layer id="284" name="mul_29/FusedScaleShift_" precision="FP32" type="ScaleShift">
			<input>
				<port id="0">
					<dim>1</dim>
					<dim>32</dim>
					<dim>200</dim>
					<dim>256</dim>
				</port>
			</input>
			<output>
				<port id="3">
					<dim>1</dim>
					<dim>32</dim>
					<dim>200</dim>
					<dim>256</dim>
				</port>
			</output>
			<blobs>
				<weights offset="6679168" size="128"/>
				<biases offset="6679296" size="128"/>
			</blobs>
		</layer>
		<layer id="285" name="Relu_9" precision="FP32" type="ReLU">
			<input>
				<port id="0">
					<dim>1</dim>
					<dim>32</dim>
					<dim>200</dim>
					<dim>256</dim>
				</port>
			</input>
			<output>
				<port id="1">
					<dim>1</dim>
					<dim>32</dim>
					<dim>200</dim>
					<dim>256</dim>
				</port>
			</output>
		</layer>
		<layer id="286" name="Conv2D_13" precision="FP32" type="Convolution">
			<data auto_pad="same_upper" dilations="1,1" group="1" kernel="9,9" output="3" pads_begin="4,4" pads_end="4,4" strides="1,1"/>
			<input>
				<port id="0">
					<dim>1</dim>
					<dim>32</dim>
					<dim>200</dim>
					<dim>256</dim>
				</port>
			</input>
			<output>
				<port id="2">
					<dim>1</dim>
					<dim>3</dim>
					<dim>200</dim>
					<dim>256</dim>
				</port>
			</output>
			<blobs>
				<weights offset="6679424" size="31104"/>
			</blobs>
		</layer>
		<layer id="287" name="moments_15/mean" precision="FP32" type="Pooling">
			<data exclude-pad="true" kernel="200,256" pads_begin="0,0" pads_end="0,0" pool-method="avg" rounding-type="ceil" strides="1,1"/>
			<input>
				<port id="0">
					<dim>1</dim>
					<dim>3</dim>
					<dim>200</dim>
					<dim>256</dim>
				</port>
			</input>
			<output>
				<port id="1">
					<dim>1</dim>
					<dim>3</dim>
					<dim>1</dim>
					<dim>1</dim>
				</port>
			</output>
		</layer>
		<layer id="288" name="sub_15/negate_" precision="FP32" type="Power">
			<data power="1" scale="-1" shift="0"/>
			<input>
				<port id="0">
					<dim>1</dim>
					<dim>3</dim>
					<dim>1</dim>
					<dim>1</dim>
				</port>
			</input>
			<output>
				<port id="1">
					<dim>1</dim>
					<dim>3</dim>
					<dim>1</dim>
					<dim>1</dim>
				</port>
			</output>
		</layer>
		<layer id="289" name="sub_15/add_/Broadcast/" precision="FP32" type="Tile">
			<data axis="2" tiles="200"/>
			<input>
				<port id="0">
					<dim>1</dim>
					<dim>3</dim>
					<dim>1</dim>
					<dim>1</dim>
				</port>
			</input>
			<output>
				<port id="1">
					<dim>1</dim>
					<dim>3</dim>
					<dim>200</dim>
					<dim>1</dim>
				</port>
			</output>
		</layer>
		<layer id="290" name="sub_15/add_/Broadcast/1120" precision="FP32" type="Tile">
			<data axis="3" tiles="256"/>
			<input>
				<port id="0">
					<dim>1</dim>
					<dim>3</dim>
					<dim>200</dim>
					<dim>1</dim>
				</port>
			</input>
			<output>
				<port id="1">
					<dim>1</dim>
					<dim>3</dim>
					<dim>200</dim>
					<dim>256</dim>
				</port>
			</output>
		</layer>
		<layer id="291" name="sub_15/add_" precision="FP32" type="Eltwise">
			<data operation="sum"/>
			<input>
				<port id="0">
					<dim>1</dim>
					<dim>3</dim>
					<dim>200</dim>
					<dim>256</dim>
				</port>
				<port id="1">
					<dim>1</dim>
					<dim>3</dim>
					<dim>200</dim>
					<dim>256</dim>
				</port>
			</input>
			<output>
				<port id="2">
					<dim>1</dim>
					<dim>3</dim>
					<dim>200</dim>
					<dim>256</dim>
				</port>
			</output>
		</layer>
		<layer id="292" name="moments_15/SquaredDifference/negate_" precision="FP32" type="Power">
			<data power="1" scale="-1" shift="0"/>
			<input>
				<port id="0">
					<dim>1</dim>
					<dim>3</dim>
					<dim>1</dim>
					<dim>1</dim>
				</port>
			</input>
			<output>
				<port id="1">
					<dim>1</dim>
					<dim>3</dim>
					<dim>1</dim>
					<dim>1</dim>
				</port>
			</output>
		</layer>
		<layer id="293" name="moments_15/SquaredDifference/add_/Broadcast/" precision="FP32" type="Tile">
			<data axis="2" tiles="200"/>
			<input>
				<port id="0">
					<dim>1</dim>
					<dim>3</dim>
					<dim>1</dim>
					<dim>1</dim>
				</port>
			</input>
			<output>
				<port id="1">
					<dim>1</dim>
					<dim>3</dim>
					<dim>200</dim>
					<dim>1</dim>
				</port>
			</output>
		</layer>
		<layer id="294" name="moments_15/SquaredDifference/add_/Broadcast/1220" precision="FP32" type="Tile">
			<data axis="3" tiles="256"/>
			<input>
				<port id="0">
					<dim>1</dim>
					<dim>3</dim>
					<dim>200</dim>
					<dim>1</dim>
				</port>
			</input>
			<output>
				<port id="1">
					<dim>1</dim>
					<dim>3</dim>
					<dim>200</dim>
					<dim>256</dim>
				</port>
			</output>
		</layer>
		<layer id="295" name="moments_15/SquaredDifference/add_" precision="FP32" type="Eltwise">
			<data operation="sum"/>
			<input>
				<port id="0">
					<dim>1</dim>
					<dim>3</dim>
					<dim>200</dim>
					<dim>256</dim>
				</port>
				<port id="1">
					<dim>1</dim>
					<dim>3</dim>
					<dim>200</dim>
					<dim>256</dim>
				</port>
			</input>
			<output>
				<port id="2">
					<dim>1</dim>
					<dim>3</dim>
					<dim>200</dim>
					<dim>256</dim>
				</port>
			</output>
		</layer>
		<layer id="296" name="moments_15/SquaredDifference/squared_" precision="FP32" type="Power">
			<data power="2" scale="1" shift="0"/>
			<input>
				<port id="0">
					<dim>1</dim>
					<dim>3</dim>
					<dim>200</dim>
					<dim>256</dim>
				</port>
			</input>
			<output>
				<port id="1">
					<dim>1</dim>
					<dim>3</dim>
					<dim>200</dim>
					<dim>256</dim>
				</port>
			</output>
		</layer>
		<layer id="297" name="moments_15/variance" precision="FP32" type="Pooling">
			<data exclude-pad="true" kernel="200,256" pads_begin="0,0" pads_end="0,0" pool-method="avg" rounding-type="ceil" strides="1,1"/>
			<input>
				<port id="0">
					<dim>1</dim>
					<dim>3</dim>
					<dim>200</dim>
					<dim>256</dim>
				</port>
			</input>
			<output>
				<port id="1">
					<dim>1</dim>
					<dim>3</dim>
					<dim>1</dim>
					<dim>1</dim>
				</port>
			</output>
		</layer>
		<layer id="298" name="add_35" precision="FP32" type="Power">
			<data power="1" scale="1" shift="0.0010000000474974513"/>
			<input>
				<port id="0">
					<dim>1</dim>
					<dim>3</dim>
					<dim>1</dim>
					<dim>1</dim>
				</port>
			</input>
			<output>
				<port id="1">
					<dim>1</dim>
					<dim>3</dim>
					<dim>1</dim>
					<dim>1</dim>
				</port>
			</output>
		</layer>
		<layer id="299" name="Rsqrt_15" precision="FP32" type="Power">
			<data power="-0.5" scale="1" shift="0"/>
			<input>
				<port id="0">
					<dim>1</dim>
					<dim>3</dim>
					<dim>1</dim>
					<dim>1</dim>
				</port>
			</input>
			<output>
				<port id="1">
					<dim>1</dim>
					<dim>3</dim>
					<dim>1</dim>
					<dim>1</dim>
				</port>
			</output>
		</layer>
		<layer id="300" name="mul_30/Broadcast/" precision="FP32" type="Tile">
			<data axis="2" tiles="200"/>
			<input>
				<port id="0">
					<dim>1</dim>
					<dim>3</dim>
					<dim>1</dim>
					<dim>1</dim>
				</port>
			</input>
			<output>
				<port id="1">
					<dim>1</dim>
					<dim>3</dim>
					<dim>200</dim>
					<dim>1</dim>
				</port>
			</output>
		</layer>
		<layer id="301" name="mul_30/Broadcast/1112" precision="FP32" type="Tile">
			<data axis="3" tiles="256"/>
			<input>
				<port id="0">
					<dim>1</dim>
					<dim>3</dim>
					<dim>200</dim>
					<dim>1</dim>
				</port>
			</input>
			<output>
				<port id="1">
					<dim>1</dim>
					<dim>3</dim>
					<dim>200</dim>
					<dim>256</dim>
				</port>
			</output>
		</layer>
		<layer id="302" name="mul_30" precision="FP32" type="Eltwise">
			<data operation="mul"/>
			<input>
				<port id="0">
					<dim>1</dim>
					<dim>3</dim>
					<dim>200</dim>
					<dim>256</dim>
				</port>
				<port id="1">
					<dim>1</dim>
					<dim>3</dim>
					<dim>200</dim>
					<dim>256</dim>
				</port>
			</input>
			<output>
				<port id="2">
					<dim>1</dim>
					<dim>3</dim>
					<dim>200</dim>
					<dim>256</dim>
				</port>
			</output>
		</layer>
		<layer id="303" name="mul_31/FusedScaleShift_" precision="FP32" type="ScaleShift">
			<input>
				<port id="0">
					<dim>1</dim>
					<dim>3</dim>
					<dim>200</dim>
					<dim>256</dim>
				</port>
			</input>
			<output>
				<port id="3">
					<dim>1</dim>
					<dim>3</dim>
					<dim>200</dim>
					<dim>256</dim>
				</port>
			</output>
			<blobs>
				<weights offset="6710528" size="12"/>
				<biases offset="6710540" size="12"/>
			</blobs>
		</layer>
		<layer id="304" name="Tanh" precision="FP32" type="Activation">
			<data type="tanh"/>
			<input>
				<port id="0">
					<dim>1</dim>
					<dim>3</dim>
					<dim>200</dim>
					<dim>256</dim>
				</port>
			</input>
			<output>
				<port id="1">
					<dim>1</dim>
					<dim>3</dim>
					<dim>200</dim>
					<dim>256</dim>
				</port>
			</output>
		</layer>
		<layer id="305" name="mul_32/FusedPower_" precision="FP32" type="Power">
			<data power="1" scale="150.0" shift="127.5"/>
			<input>
				<port id="0">
					<dim>1</dim>
					<dim>3</dim>
					<dim>200</dim>
					<dim>256</dim>
				</port>
			</input>
			<output>
				<port id="1">
					<dim>1</dim>
					<dim>3</dim>
					<dim>200</dim>
					<dim>256</dim>
				</port>
			</output>
		</layer>
	</layers>
	<edges>
		<edge from-layer="0" from-port="0" to-layer="1" to-port="0"/>
		<edge from-layer="1" from-port="2" to-layer="2" to-port="0"/>
		<edge from-layer="2" from-port="1" to-layer="3" to-port="0"/>
		<edge from-layer="3" from-port="1" to-layer="4" to-port="0"/>
		<edge from-layer="4" from-port="1" to-layer="5" to-port="0"/>
		<edge from-layer="1" from-port="2" to-layer="6" to-port="0"/>
		<edge from-layer="5" from-port="1" to-layer="6" to-port="1"/>
		<edge from-layer="2" from-port="1" to-layer="7" to-port="0"/>
		<edge from-layer="7" from-port="1" to-layer="8" to-port="0"/>
		<edge from-layer="8" from-port="1" to-layer="9" to-port="0"/>
		<edge from-layer="1" from-port="2" to-layer="10" to-port="0"/>
		<edge from-layer="9" from-port="1" to-layer="10" to-port="1"/>
		<edge from-layer="10" from-port="2" to-layer="11" to-port="0"/>
		<edge from-layer="11" from-port="1" to-layer="12" to-port="0"/>
		<edge from-layer="12" from-port="1" to-layer="13" to-port="0"/>
		<edge from-layer="13" from-port="1" to-layer="14" to-port="0"/>
		<edge from-layer="14" from-port="1" to-layer="15" to-port="0"/>
		<edge from-layer="15" from-port="1" to-layer="16" to-port="0"/>
		<edge from-layer="6" from-port="2" to-layer="17" to-port="0"/>
		<edge from-layer="16" from-port="1" to-layer="17" to-port="1"/>
		<edge from-layer="17" from-port="2" to-layer="18" to-port="0"/>
		<edge from-layer="18" from-port="3" to-layer="19" to-port="0"/>
		<edge from-layer="19" from-port="1" to-layer="20" to-port="0"/>
		<edge from-layer="20" from-port="2" to-layer="21" to-port="0"/>
		<edge from-layer="21" from-port="1" to-layer="22" to-port="0"/>
		<edge from-layer="22" from-port="1" to-layer="23" to-port="0"/>
		<edge from-layer="23" from-port="1" to-layer="24" to-port="0"/>
		<edge from-layer="20" from-port="2" to-layer="25" to-port="0"/>
		<edge from-layer="24" from-port="1" to-layer="25" to-port="1"/>
		<edge from-layer="21" from-port="1" to-layer="26" to-port="0"/>
		<edge from-layer="26" from-port="1" to-layer="27" to-port="0"/>
		<edge from-layer="27" from-port="1" to-layer="28" to-port="0"/>
		<edge from-layer="20" from-port="2" to-layer="29" to-port="0"/>
		<edge from-layer="28" from-port="1" to-layer="29" to-port="1"/>
		<edge from-layer="29" from-port="2" to-layer="30" to-port="0"/>
		<edge from-layer="30" from-port="1" to-layer="31" to-port="0"/>
		<edge from-layer="31" from-port="1" to-layer="32" to-port="0"/>
		<edge from-layer="32" from-port="1" to-layer="33" to-port="0"/>
		<edge from-layer="33" from-port="1" to-layer="34" to-port="0"/>
		<edge from-layer="34" from-port="1" to-layer="35" to-port="0"/>
		<edge from-layer="25" from-port="2" to-layer="36" to-port="0"/>
		<edge from-layer="35" from-port="1" to-layer="36" to-port="1"/>
		<edge from-layer="36" from-port="2" to-layer="37" to-port="0"/>
		<edge from-layer="37" from-port="3" to-layer="38" to-port="0"/>
		<edge from-layer="38" from-port="1" to-layer="39" to-port="0"/>
		<edge from-layer="39" from-port="2" to-layer="40" to-port="0"/>
		<edge from-layer="40" from-port="1" to-layer="41" to-port="0"/>
		<edge from-layer="41" from-port="1" to-layer="42" to-port="0"/>
		<edge from-layer="42" from-port="1" to-layer="43" to-port="0"/>
		<edge from-layer="39" from-port="2" to-layer="44" to-port="0"/>
		<edge from-layer="43" from-port="1" to-layer="44" to-port="1"/>
		<edge from-layer="40" from-port="1" to-layer="45" to-port="0"/>
		<edge from-layer="45" from-port="1" to-layer="46" to-port="0"/>
		<edge from-layer="46" from-port="1" to-layer="47" to-port="0"/>
		<edge from-layer="39" from-port="2" to-layer="48" to-port="0"/>
		<edge from-layer="47" from-port="1" to-layer="48" to-port="1"/>
		<edge from-layer="48" from-port="2" to-layer="49" to-port="0"/>
		<edge from-layer="49" from-port="1" to-layer="50" to-port="0"/>
		<edge from-layer="50" from-port="1" to-layer="51" to-port="0"/>
		<edge from-layer="51" from-port="1" to-layer="52" to-port="0"/>
		<edge from-layer="52" from-port="1" to-layer="53" to-port="0"/>
		<edge from-layer="53" from-port="1" to-layer="54" to-port="0"/>
		<edge from-layer="44" from-port="2" to-layer="55" to-port="0"/>
		<edge from-layer="54" from-port="1" to-layer="55" to-port="1"/>
		<edge from-layer="55" from-port="2" to-layer="56" to-port="0"/>
		<edge from-layer="56" from-port="3" to-layer="57" to-port="0"/>
		<edge from-layer="57" from-port="1" to-layer="58" to-port="0"/>
		<edge from-layer="58" from-port="2" to-layer="59" to-port="0"/>
		<edge from-layer="59" from-port="1" to-layer="60" to-port="0"/>
		<edge from-layer="60" from-port="1" to-layer="61" to-port="0"/>
		<edge from-layer="61" from-port="1" to-layer="62" to-port="0"/>
		<edge from-layer="58" from-port="2" to-layer="63" to-port="0"/>
		<edge from-layer="62" from-port="1" to-layer="63" to-port="1"/>
		<edge from-layer="59" from-port="1" to-layer="64" to-port="0"/>
		<edge from-layer="64" from-port="1" to-layer="65" to-port="0"/>
		<edge from-layer="65" from-port="1" to-layer="66" to-port="0"/>
		<edge from-layer="58" from-port="2" to-layer="67" to-port="0"/>
		<edge from-layer="66" from-port="1" to-layer="67" to-port="1"/>
		<edge from-layer="67" from-port="2" to-layer="68" to-port="0"/>
		<edge from-layer="68" from-port="1" to-layer="69" to-port="0"/>
		<edge from-layer="69" from-port="1" to-layer="70" to-port="0"/>
		<edge from-layer="70" from-port="1" to-layer="71" to-port="0"/>
		<edge from-layer="71" from-port="1" to-layer="72" to-port="0"/>
		<edge from-layer="72" from-port="1" to-layer="73" to-port="0"/>
		<edge from-layer="63" from-port="2" to-layer="74" to-port="0"/>
		<edge from-layer="73" from-port="1" to-layer="74" to-port="1"/>
		<edge from-layer="74" from-port="2" to-layer="75" to-port="0"/>
		<edge from-layer="75" from-port="3" to-layer="76" to-port="0"/>
		<edge from-layer="76" from-port="1" to-layer="77" to-port="0"/>
		<edge from-layer="77" from-port="2" to-layer="78" to-port="0"/>
		<edge from-layer="78" from-port="1" to-layer="79" to-port="0"/>
		<edge from-layer="79" from-port="1" to-layer="80" to-port="0"/>
		<edge from-layer="80" from-port="1" to-layer="81" to-port="0"/>
		<edge from-layer="77" from-port="2" to-layer="82" to-port="0"/>
		<edge from-layer="81" from-port="1" to-layer="82" to-port="1"/>
		<edge from-layer="78" from-port="1" to-layer="83" to-port="0"/>
		<edge from-layer="83" from-port="1" to-layer="84" to-port="0"/>
		<edge from-layer="84" from-port="1" to-layer="85" to-port="0"/>
		<edge from-layer="77" from-port="2" to-layer="86" to-port="0"/>
		<edge from-layer="85" from-port="1" to-layer="86" to-port="1"/>
		<edge from-layer="86" from-port="2" to-layer="87" to-port="0"/>
		<edge from-layer="87" from-port="1" to-layer="88" to-port="0"/>
		<edge from-layer="88" from-port="1" to-layer="89" to-port="0"/>
		<edge from-layer="89" from-port="1" to-layer="90" to-port="0"/>
		<edge from-layer="90" from-port="1" to-layer="91" to-port="0"/>
		<edge from-layer="91" from-port="1" to-layer="92" to-port="0"/>
		<edge from-layer="82" from-port="2" to-layer="93" to-port="0"/>
		<edge from-layer="92" from-port="1" to-layer="93" to-port="1"/>
		<edge from-layer="93" from-port="2" to-layer="94" to-port="0"/>
		<edge from-layer="57" from-port="1" to-layer="95" to-port="0"/>
		<edge from-layer="94" from-port="3" to-layer="95" to-port="1"/>
		<edge from-layer="95" from-port="2" to-layer="96" to-port="0"/>
		<edge from-layer="96" from-port="2" to-layer="97" to-port="0"/>
		<edge from-layer="97" from-port="1" to-layer="98" to-port="0"/>
		<edge from-layer="98" from-port="1" to-layer="99" to-port="0"/>
		<edge from-layer="99" from-port="1" to-layer="100" to-port="0"/>
		<edge from-layer="96" from-port="2" to-layer="101" to-port="0"/>
		<edge from-layer="100" from-port="1" to-layer="101" to-port="1"/>
		<edge from-layer="97" from-port="1" to-layer="102" to-port="0"/>
		<edge from-layer="102" from-port="1" to-layer="103" to-port="0"/>
		<edge from-layer="103" from-port="1" to-layer="104" to-port="0"/>
		<edge from-layer="96" from-port="2" to-layer="105" to-port="0"/>
		<edge from-layer="104" from-port="1" to-layer="105" to-port="1"/>
		<edge from-layer="105" from-port="2" to-layer="106" to-port="0"/>
		<edge from-layer="106" from-port="1" to-layer="107" to-port="0"/>
		<edge from-layer="107" from-port="1" to-layer="108" to-port="0"/>
		<edge from-layer="108" from-port="1" to-layer="109" to-port="0"/>
		<edge from-layer="109" from-port="1" to-layer="110" to-port="0"/>
		<edge from-layer="110" from-port="1" to-layer="111" to-port="0"/>
		<edge from-layer="101" from-port="2" to-layer="112" to-port="0"/>
		<edge from-layer="111" from-port="1" to-layer="112" to-port="1"/>
		<edge from-layer="112" from-port="2" to-layer="113" to-port="0"/>
		<edge from-layer="113" from-port="3" to-layer="114" to-port="0"/>
		<edge from-layer="114" from-port="1" to-layer="115" to-port="0"/>
		<edge from-layer="115" from-port="2" to-layer="116" to-port="0"/>
		<edge from-layer="116" from-port="1" to-layer="117" to-port="0"/>
		<edge from-layer="117" from-port="1" to-layer="118" to-port="0"/>
		<edge from-layer="118" from-port="1" to-layer="119" to-port="0"/>
		<edge from-layer="115" from-port="2" to-layer="120" to-port="0"/>
		<edge from-layer="119" from-port="1" to-layer="120" to-port="1"/>
		<edge from-layer="116" from-port="1" to-layer="121" to-port="0"/>
		<edge from-layer="121" from-port="1" to-layer="122" to-port="0"/>
		<edge from-layer="122" from-port="1" to-layer="123" to-port="0"/>
		<edge from-layer="115" from-port="2" to-layer="124" to-port="0"/>
		<edge from-layer="123" from-port="1" to-layer="124" to-port="1"/>
		<edge from-layer="124" from-port="2" to-layer="125" to-port="0"/>
		<edge from-layer="125" from-port="1" to-layer="126" to-port="0"/>
		<edge from-layer="126" from-port="1" to-layer="127" to-port="0"/>
		<edge from-layer="127" from-port="1" to-layer="128" to-port="0"/>
		<edge from-layer="128" from-port="1" to-layer="129" to-port="0"/>
		<edge from-layer="129" from-port="1" to-layer="130" to-port="0"/>
		<edge from-layer="120" from-port="2" to-layer="131" to-port="0"/>
		<edge from-layer="130" from-port="1" to-layer="131" to-port="1"/>
		<edge from-layer="131" from-port="2" to-layer="132" to-port="0"/>
		<edge from-layer="95" from-port="2" to-layer="133" to-port="0"/>
		<edge from-layer="132" from-port="3" to-layer="133" to-port="1"/>
		<edge from-layer="133" from-port="2" to-layer="134" to-port="0"/>
		<edge from-layer="134" from-port="2" to-layer="135" to-port="0"/>
		<edge from-layer="135" from-port="1" to-layer="136" to-port="0"/>
		<edge from-layer="136" from-port="1" to-layer="137" to-port="0"/>
		<edge from-layer="137" from-port="1" to-layer="138" to-port="0"/>
		<edge from-layer="134" from-port="2" to-layer="139" to-port="0"/>
		<edge from-layer="138" from-port="1" to-layer="139" to-port="1"/>
		<edge from-layer="135" from-port="1" to-layer="140" to-port="0"/>
		<edge from-layer="140" from-port="1" to-layer="141" to-port="0"/>
		<edge from-layer="141" from-port="1" to-layer="142" to-port="0"/>
		<edge from-layer="134" from-port="2" to-layer="143" to-port="0"/>
		<edge from-layer="142" from-port="1" to-layer="143" to-port="1"/>
		<edge from-layer="143" from-port="2" to-layer="144" to-port="0"/>
		<edge from-layer="144" from-port="1" to-layer="145" to-port="0"/>
		<edge from-layer="145" from-port="1" to-layer="146" to-port="0"/>
		<edge from-layer="146" from-port="1" to-layer="147" to-port="0"/>
		<edge from-layer="147" from-port="1" to-layer="148" to-port="0"/>
		<edge from-layer="148" from-port="1" to-layer="149" to-port="0"/>
		<edge from-layer="139" from-port="2" to-layer="150" to-port="0"/>
		<edge from-layer="149" from-port="1" to-layer="150" to-port="1"/>
		<edge from-layer="150" from-port="2" to-layer="151" to-port="0"/>
		<edge from-layer="151" from-port="3" to-layer="152" to-port="0"/>
		<edge from-layer="152" from-port="1" to-layer="153" to-port="0"/>
		<edge from-layer="153" from-port="2" to-layer="154" to-port="0"/>
		<edge from-layer="154" from-port="1" to-layer="155" to-port="0"/>
		<edge from-layer="155" from-port="1" to-layer="156" to-port="0"/>
		<edge from-layer="156" from-port="1" to-layer="157" to-port="0"/>
		<edge from-layer="153" from-port="2" to-layer="158" to-port="0"/>
		<edge from-layer="157" from-port="1" to-layer="158" to-port="1"/>
		<edge from-layer="154" from-port="1" to-layer="159" to-port="0"/>
		<edge from-layer="159" from-port="1" to-layer="160" to-port="0"/>
		<edge from-layer="160" from-port="1" to-layer="161" to-port="0"/>
		<edge from-layer="153" from-port="2" to-layer="162" to-port="0"/>
		<edge from-layer="161" from-port="1" to-layer="162" to-port="1"/>
		<edge from-layer="162" from-port="2" to-layer="163" to-port="0"/>
		<edge from-layer="163" from-port="1" to-layer="164" to-port="0"/>
		<edge from-layer="164" from-port="1" to-layer="165" to-port="0"/>
		<edge from-layer="165" from-port="1" to-layer="166" to-port="0"/>
		<edge from-layer="166" from-port="1" to-layer="167" to-port="0"/>
		<edge from-layer="167" from-port="1" to-layer="168" to-port="0"/>
		<edge from-layer="158" from-port="2" to-layer="169" to-port="0"/>
		<edge from-layer="168" from-port="1" to-layer="169" to-port="1"/>
		<edge from-layer="169" from-port="2" to-layer="170" to-port="0"/>
		<edge from-layer="133" from-port="2" to-layer="171" to-port="0"/>
		<edge from-layer="170" from-port="3" to-layer="171" to-port="1"/>
		<edge from-layer="171" from-port="2" to-layer="172" to-port="0"/>
		<edge from-layer="172" from-port="2" to-layer="173" to-port="0"/>
		<edge from-layer="173" from-port="1" to-layer="174" to-port="0"/>
		<edge from-layer="174" from-port="1" to-layer="175" to-port="0"/>
		<edge from-layer="175" from-port="1" to-layer="176" to-port="0"/>
		<edge from-layer="172" from-port="2" to-layer="177" to-port="0"/>
		<edge from-layer="176" from-port="1" to-layer="177" to-port="1"/>
		<edge from-layer="173" from-port="1" to-layer="178" to-port="0"/>
		<edge from-layer="178" from-port="1" to-layer="179" to-port="0"/>
		<edge from-layer="179" from-port="1" to-layer="180" to-port="0"/>
		<edge from-layer="172" from-port="2" to-layer="181" to-port="0"/>
		<edge from-layer="180" from-port="1" to-layer="181" to-port="1"/>
		<edge from-layer="181" from-port="2" to-layer="182" to-port="0"/>
		<edge from-layer="182" from-port="1" to-layer="183" to-port="0"/>
		<edge from-layer="183" from-port="1" to-layer="184" to-port="0"/>
		<edge from-layer="184" from-port="1" to-layer="185" to-port="0"/>
		<edge from-layer="185" from-port="1" to-layer="186" to-port="0"/>
		<edge from-layer="186" from-port="1" to-layer="187" to-port="0"/>
		<edge from-layer="177" from-port="2" to-layer="188" to-port="0"/>
		<edge from-layer="187" from-port="1" to-layer="188" to-port="1"/>
		<edge from-layer="188" from-port="2" to-layer="189" to-port="0"/>
		<edge from-layer="189" from-port="3" to-layer="190" to-port="0"/>
		<edge from-layer="190" from-port="1" to-layer="191" to-port="0"/>
		<edge from-layer="191" from-port="2" to-layer="192" to-port="0"/>
		<edge from-layer="192" from-port="1" to-layer="193" to-port="0"/>
		<edge from-layer="193" from-port="1" to-layer="194" to-port="0"/>
		<edge from-layer="194" from-port="1" to-layer="195" to-port="0"/>
		<edge from-layer="191" from-port="2" to-layer="196" to-port="0"/>
		<edge from-layer="195" from-port="1" to-layer="196" to-port="1"/>
		<edge from-layer="192" from-port="1" to-layer="197" to-port="0"/>
		<edge from-layer="197" from-port="1" to-layer="198" to-port="0"/>
		<edge from-layer="198" from-port="1" to-layer="199" to-port="0"/>
		<edge from-layer="191" from-port="2" to-layer="200" to-port="0"/>
		<edge from-layer="199" from-port="1" to-layer="200" to-port="1"/>
		<edge from-layer="200" from-port="2" to-layer="201" to-port="0"/>
		<edge from-layer="201" from-port="1" to-layer="202" to-port="0"/>
		<edge from-layer="202" from-port="1" to-layer="203" to-port="0"/>
		<edge from-layer="203" from-port="1" to-layer="204" to-port="0"/>
		<edge from-layer="204" from-port="1" to-layer="205" to-port="0"/>
		<edge from-layer="205" from-port="1" to-layer="206" to-port="0"/>
		<edge from-layer="196" from-port="2" to-layer="207" to-port="0"/>
		<edge from-layer="206" from-port="1" to-layer="207" to-port="1"/>
		<edge from-layer="207" from-port="2" to-layer="208" to-port="0"/>
		<edge from-layer="171" from-port="2" to-layer="209" to-port="0"/>
		<edge from-layer="208" from-port="3" to-layer="209" to-port="1"/>
		<edge from-layer="209" from-port="2" to-layer="210" to-port="0"/>
		<edge from-layer="210" from-port="2" to-layer="211" to-port="0"/>
		<edge from-layer="211" from-port="1" to-layer="212" to-port="0"/>
		<edge from-layer="212" from-port="1" to-layer="213" to-port="0"/>
		<edge from-layer="213" from-port="1" to-layer="214" to-port="0"/>
		<edge from-layer="210" from-port="2" to-layer="215" to-port="0"/>
		<edge from-layer="214" from-port="1" to-layer="215" to-port="1"/>
		<edge from-layer="211" from-port="1" to-layer="216" to-port="0"/>
		<edge from-layer="216" from-port="1" to-layer="217" to-port="0"/>
		<edge from-layer="217" from-port="1" to-layer="218" to-port="0"/>
		<edge from-layer="210" from-port="2" to-layer="219" to-port="0"/>
		<edge from-layer="218" from-port="1" to-layer="219" to-port="1"/>
		<edge from-layer="219" from-port="2" to-layer="220" to-port="0"/>
		<edge from-layer="220" from-port="1" to-layer="221" to-port="0"/>
		<edge from-layer="221" from-port="1" to-layer="222" to-port="0"/>
		<edge from-layer="222" from-port="1" to-layer="223" to-port="0"/>
		<edge from-layer="223" from-port="1" to-layer="224" to-port="0"/>
		<edge from-layer="224" from-port="1" to-layer="225" to-port="0"/>
		<edge from-layer="215" from-port="2" to-layer="226" to-port="0"/>
		<edge from-layer="225" from-port="1" to-layer="226" to-port="1"/>
		<edge from-layer="226" from-port="2" to-layer="227" to-port="0"/>
		<edge from-layer="227" from-port="3" to-layer="228" to-port="0"/>
		<edge from-layer="228" from-port="1" to-layer="229" to-port="0"/>
		<edge from-layer="229" from-port="2" to-layer="230" to-port="0"/>
		<edge from-layer="230" from-port="1" to-layer="231" to-port="0"/>
		<edge from-layer="231" from-port="1" to-layer="232" to-port="0"/>
		<edge from-layer="232" from-port="1" to-layer="233" to-port="0"/>
		<edge from-layer="229" from-port="2" to-layer="234" to-port="0"/>
		<edge from-layer="233" from-port="1" to-layer="234" to-port="1"/>
		<edge from-layer="230" from-port="1" to-layer="235" to-port="0"/>
		<edge from-layer="235" from-port="1" to-layer="236" to-port="0"/>
		<edge from-layer="236" from-port="1" to-layer="237" to-port="0"/>
		<edge from-layer="229" from-port="2" to-layer="238" to-port="0"/>
		<edge from-layer="237" from-port="1" to-layer="238" to-port="1"/>
		<edge from-layer="238" from-port="2" to-layer="239" to-port="0"/>
		<edge from-layer="239" from-port="1" to-layer="240" to-port="0"/>
		<edge from-layer="240" from-port="1" to-layer="241" to-port="0"/>
		<edge from-layer="241" from-port="1" to-layer="242" to-port="0"/>
		<edge from-layer="242" from-port="1" to-layer="243" to-port="0"/>
		<edge from-layer="243" from-port="1" to-layer="244" to-port="0"/>
		<edge from-layer="234" from-port="2" to-layer="245" to-port="0"/>
		<edge from-layer="244" from-port="1" to-layer="245" to-port="1"/>
		<edge from-layer="245" from-port="2" to-layer="246" to-port="0"/>
		<edge from-layer="209" from-port="2" to-layer="247" to-port="0"/>
		<edge from-layer="246" from-port="3" to-layer="247" to-port="1"/>
		<edge from-layer="247" from-port="2" to-layer="248" to-port="0"/>
		<edge from-layer="248" from-port="2" to-layer="249" to-port="0"/>
		<edge from-layer="249" from-port="1" to-layer="250" to-port="0"/>
		<edge from-layer="250" from-port="1" to-layer="251" to-port="0"/>
		<edge from-layer="251" from-port="1" to-layer="252" to-port="0"/>
		<edge from-layer="248" from-port="2" to-layer="253" to-port="0"/>
		<edge from-layer="252" from-port="1" to-layer="253" to-port="1"/>
		<edge from-layer="249" from-port="1" to-layer="254" to-port="0"/>
		<edge from-layer="254" from-port="1" to-layer="255" to-port="0"/>
		<edge from-layer="255" from-port="1" to-layer="256" to-port="0"/>
		<edge from-layer="248" from-port="2" to-layer="257" to-port="0"/>
		<edge from-layer="256" from-port="1" to-layer="257" to-port="1"/>
		<edge from-layer="257" from-port="2" to-layer="258" to-port="0"/>
		<edge from-layer="258" from-port="1" to-layer="259" to-port="0"/>
		<edge from-layer="259" from-port="1" to-layer="260" to-port="0"/>
		<edge from-layer="260" from-port="1" to-layer="261" to-port="0"/>
		<edge from-layer="261" from-port="1" to-layer="262" to-port="0"/>
		<edge from-layer="262" from-port="1" to-layer="263" to-port="0"/>
		<edge from-layer="253" from-port="2" to-layer="264" to-port="0"/>
		<edge from-layer="263" from-port="1" to-layer="264" to-port="1"/>
		<edge from-layer="264" from-port="2" to-layer="265" to-port="0"/>
		<edge from-layer="265" from-port="3" to-layer="266" to-port="0"/>
		<edge from-layer="266" from-port="1" to-layer="267" to-port="0"/>
		<edge from-layer="267" from-port="2" to-layer="268" to-port="0"/>
		<edge from-layer="268" from-port="1" to-layer="269" to-port="0"/>
		<edge from-layer="269" from-port="1" to-layer="270" to-port="0"/>
		<edge from-layer="270" from-port="1" to-layer="271" to-port="0"/>
		<edge from-layer="267" from-port="2" to-layer="272" to-port="0"/>
		<edge from-layer="271" from-port="1" to-layer="272" to-port="1"/>
		<edge from-layer="268" from-port="1" to-layer="273" to-port="0"/>
		<edge from-layer="273" from-port="1" to-layer="274" to-port="0"/>
		<edge from-layer="274" from-port="1" to-layer="275" to-port="0"/>
		<edge from-layer="267" from-port="2" to-layer="276" to-port="0"/>
		<edge from-layer="275" from-port="1" to-layer="276" to-port="1"/>
		<edge from-layer="276" from-port="2" to-layer="277" to-port="0"/>
		<edge from-layer="277" from-port="1" to-layer="278" to-port="0"/>
		<edge from-layer="278" from-port="1" to-layer="279" to-port="0"/>
		<edge from-layer="279" from-port="1" to-layer="280" to-port="0"/>
		<edge from-layer="280" from-port="1" to-layer="281" to-port="0"/>
		<edge from-layer="281" from-port="1" to-layer="282" to-port="0"/>
		<edge from-layer="272" from-port="2" to-layer="283" to-port="0"/>
		<edge from-layer="282" from-port="1" to-layer="283" to-port="1"/>
		<edge from-layer="283" from-port="2" to-layer="284" to-port="0"/>
		<edge from-layer="284" from-port="3" to-layer="285" to-port="0"/>
		<edge from-layer="285" from-port="1" to-layer="286" to-port="0"/>
		<edge from-layer="286" from-port="2" to-layer="287" to-port="0"/>
		<edge from-layer="287" from-port="1" to-layer="288" to-port="0"/>
		<edge from-layer="288" from-port="1" to-layer="289" to-port="0"/>
		<edge from-layer="289" from-port="1" to-layer="290" to-port="0"/>
		<edge from-layer="286" from-port="2" to-layer="291" to-port="0"/>
		<edge from-layer="290" from-port="1" to-layer="291" to-port="1"/>
		<edge from-layer="287" from-port="1" to-layer="292" to-port="0"/>
		<edge from-layer="292" from-port="1" to-layer="293" to-port="0"/>
		<edge from-layer="293" from-port="1" to-layer="294" to-port="0"/>
		<edge from-layer="286" from-port="2" to-layer="295" to-port="0"/>
		<edge from-layer="294" from-port="1" to-layer="295" to-port="1"/>
		<edge from-layer="295" from-port="2" to-layer="296" to-port="0"/>
		<edge from-layer="296" from-port="1" to-layer="297" to-port="0"/>
		<edge from-layer="297" from-port="1" to-layer="298" to-port="0"/>
		<edge from-layer="298" from-port="1" to-layer="299" to-port="0"/>
		<edge from-layer="299" from-port="1" to-layer="300" to-port="0"/>
		<edge from-layer="300" from-port="1" to-layer="301" to-port="0"/>
		<edge from-layer="291" from-port="2" to-layer="302" to-port="0"/>
		<edge from-layer="301" from-port="1" to-layer="302" to-port="1"/>
		<edge from-layer="302" from-port="2" to-layer="303" to-port="0"/>
		<edge from-layer="303" from-port="3" to-layer="304" to-port="0"/>
		<edge from-layer="304" from-port="1" to-layer="305" to-port="0"/>
	</edges>
	<meta_data>
		<MO_version value="1.4.264.f0542e66"/>
		<cli_parameters>
			<data_type value="float"/>
			<disable_fusing value="False"/>
			<disable_gfusing value="False"/>
			<disable_nhwc_to_nchw value="False"/>
			<disable_resnet_optimization value="False"/>
			<extensions value="DIR"/>
			<framework value="tf"/>
			<generate_deprecated_IR_V2 value="False"/>
			<input_model value="DIR/model-out.pb"/>
			<input_model_is_text value="False"/>
			<log_level value="ERROR"/>
			<mean_values value="()"/>
			<move_to_preprocess value="False"/>
			<offload_unsupported_operations_to_tf value="False"/>
			<output_dir value="DIR"/>
			<reverse_input_channels value="False"/>
			<scale_values value="()"/>
			<silent value="False"/>
			<version value="False"/>
			<unset unset_cli_parameters="batch, finegrain_fusing, freeze_placeholder_with_value, input, input_checkpoint, input_meta_graph, input_shape, model_name, output, saved_model_dir, saved_model_tags, scale, tensorboard_logdir, tensorflow_custom_layer_libraries, tensorflow_custom_operations_config_update, tensorflow_object_detection_api_pipeline_config, tensorflow_operation_patterns, tensorflow_subgraph_patterns, tensorflow_use_custom_operations_config"/>
		</cli_parameters>
	</meta_data>
</net>
